Model: "functional_1"
_________________________________________________________________
Layer (type)                 Output Shape              Param #   
=================================================================
conv2d_input (InputLayer)    [(None, 200, 200, 3)]     0         
_________________________________________________________________
conv2d (Conv2D)              (None, 200, 200, 32)      896       
_________________________________________________________________
max_pooling2d (MaxPooling2D) (None, 100, 100, 32)      0         
_________________________________________________________________
conv2d_1 (Conv2D)            (None, 100, 100, 64)      18496     
_________________________________________________________________
max_pooling2d_1 (MaxPooling2 (None, 50, 50, 64)        0         
_________________________________________________________________
conv2d_2 (Conv2D)            (None, 50, 50, 128)       73856     
_________________________________________________________________
max_pooling2d_2 (MaxPooling2 (None, 25, 25, 128)       0         
_________________________________________________________________
flatten (Flatten)            (None, 80000)             0         
_________________________________________________________________
dense (Dense)                (None, 128)               10240128  
_________________________________________________________________
dense_1 (Dense)              (None, 1)                 129       
=================================================================
Total params: 10,333,505
Trainable params: 10,333,505
Non-trainable params: 0
_________________________________________________________________
None
Found 145 images belonging to 2 classes.
Found 36 images belonging to 2 classes.
Found 46 images belonging to 2 classes.
Epoch 1/100
 1/10 [==>...........................] - ET
…
10/10 [==============================] - 35s 3s/step - loss: 0.1367 - accuracy: 0.9655 - val_loss: 0.2935 - val_accuracy: 0.8889
> 100.000
Model: "functional_3"
_________________________________________________________________
Layer (type)                 Output Shape              Param #   
=================================================================
input_1 (InputLayer)         [(None, 200, 200, 3)]     0         
_________________________________________________________________
block1_conv1 (Conv2D)        (None, 200, 200, 64)      1792      
_________________________________________________________________
block1_conv2 (Conv2D)        (None, 200, 200, 64)      36928     
_________________________________________________________________
block1_pool (MaxPooling2D)   (None, 100, 100, 64)      0         
_________________________________________________________________
block2_conv1 (Conv2D)        (None, 100, 100, 128)     73856     
_________________________________________________________________
block2_conv2 (Conv2D)        (None, 100, 100, 128)     147584    
_________________________________________________________________
block2_pool (MaxPooling2D)   (None, 50, 50, 128)       0         
_________________________________________________________________
block3_conv1 (Conv2D)        (None, 50, 50, 256)       295168    
_________________________________________________________________
block3_conv2 (Conv2D)        (None, 50, 50, 256)       590080    
_________________________________________________________________
block3_conv3 (Conv2D)        (None, 50, 50, 256)       590080    
_________________________________________________________________
block3_pool (MaxPooling2D)   (None, 25, 25, 256)       0         
_________________________________________________________________
block4_conv1 (Conv2D)        (None, 25, 25, 512)       1180160   
_________________________________________________________________
block4_conv2 (Conv2D)        (None, 25, 25, 512)       2359808   
_________________________________________________________________
block4_conv3 (Conv2D)        (None, 25, 25, 512)       2359808   
_________________________________________________________________
block4_pool (MaxPooling2D)   (None, 12, 12, 512)       0         
_________________________________________________________________
block5_conv1 (Conv2D)        (None, 12, 12, 512)       2359808   
_________________________________________________________________
block5_conv2 (Conv2D)        (None, 12, 12, 512)       2359808   
_________________________________________________________________
block5_conv3 (Conv2D)        (None, 12, 12, 512)       2359808   
_________________________________________________________________
block5_pool (MaxPooling2D)   (None, 6, 6, 512)         0         
_________________________________________________________________
flatten_1 (Flatten)          (None, 18432)             0         
_________________________________________________________________
dense_2 (Dense)              (None, 128)               2359424   
_________________________________________________________________
dense_3 (Dense)              (None, 1)                 129       
=================================================================
Total params: 17,074,241
Trainable params: 2,359,553
Non-trainable params: 14,714,688
_________________________________________________________________
None
Found 145 images belonging to 2 classes.
Found 36 images belonging to 2 classes.
Found 46 images belonging to 2 classes.
Epoch 1/100
 1/10 [==>.........................
…
10/10 [==============================] - 68s 7s/step - loss: 0.0229 - accuracy: 1.0000 - val_loss: 0.0513 - val_accuracy: 1.0000
> 100.000
Model: "functional_5"
_________________________________________________________________
Layer (type)                 Output Shape              Param #   
=================================================================
input_2 (InputLayer)         [(None, 200, 200, 3)]     0         
_________________________________________________________________
block1_conv1 (Conv2D)        (None, 200, 200, 64)      1792      
_________________________________________________________________
block1_conv2 (Conv2D)        (None, 200, 200, 64)      36928     
_________________________________________________________________
block1_pool (MaxPooling2D)   (None, 100, 100, 64)      0         
_________________________________________________________________
block2_conv1 (Conv2D)        (None, 100, 100, 128)     73856     
_________________________________________________________________
block2_conv2 (Conv2D)        (None, 100, 100, 128)     147584    
_________________________________________________________________
block2_pool (MaxPooling2D)   (None, 50, 50, 128)       0         
_________________________________________________________________
block3_conv1 (Conv2D)        (None, 50, 50, 256)       295168    
_________________________________________________________________
block3_conv2 (Conv2D)        (None, 50, 50, 256)       590080    
_________________________________________________________________
block3_conv3 (Conv2D)        (None, 50, 50, 256)       590080    
_________________________________________________________________
block3_conv4 (Conv2D)        (None, 50, 50, 256)       590080    
_________________________________________________________________
block3_pool (MaxPooling2D)   (None, 25, 25, 256)       0         
_________________________________________________________________
block4_conv1 (Conv2D)        (None, 25, 25, 512)       1180160   
_________________________________________________________________
block4_conv2 (Conv2D)        (None, 25, 25, 512)       2359808   
_________________________________________________________________
block4_conv3 (Conv2D)        (None, 25, 25, 512)       2359808   
_________________________________________________________________
block4_conv4 (Conv2D)        (None, 25, 25, 512)       2359808   
_________________________________________________________________
block4_pool (MaxPooling2D)   (None, 12, 12, 512)       0         
_________________________________________________________________
block5_conv1 (Conv2D)        (None, 12, 12, 512)       2359808   
_________________________________________________________________
block5_conv2 (Conv2D)        (None, 12, 12, 512)       2359808   
_________________________________________________________________
block5_conv3 (Conv2D)        (None, 12, 12, 512)       2359808   
_________________________________________________________________
block5_conv4 (Conv2D)        (None, 12, 12, 512)       2359808   
_________________________________________________________________
block5_pool (MaxPooling2D)   (None, 6, 6, 512)         0         
_________________________________________________________________
flatten_2 (Flatten)          (None, 18432)             0         
_________________________________________________________________
dense_4 (Dense)              (None, 128)               2359424   
_________________________________________________________________
dense_5 (Dense)              (None, 1)                 129       
=================================================================
Total params: 22,383,937
Trainable params: 2,359,553
Non-trainable params: 20,024,384
_________________________________________________________________
None
Found 145 images belonging to 2 classes.
Found 36 images belonging to 2 classes.
Found 46 images belonging to 2 classes.
Epoch 1/100
 1/10 [==>.........................
…
 0.0585 - accuracy: 0.979310/10 [==============================] - 79s 8s/step - loss: 0.0585 - accuracy: 0.9793 - val_loss: 0.0707 - val_accuracy: 0.9722
> 100.000
Model: "functional_7"
__________________________________________________________________________________________________
Layer (type)                    Output Shape         Param #     Connected to                     
==================================================================================================
input_3 (InputLayer)            [(None, 200, 200, 3) 0                                            
__________________________________________________________________________________________________
conv1_pad (ZeroPadding2D)       (None, 206, 206, 3)  0           input_3[0][0]                    
__________________________________________________________________________________________________
conv1_conv (Conv2D)             (None, 100, 100, 64) 9472        conv1_pad[0][0]                  
__________________________________________________________________________________________________
conv1_bn (BatchNormalization)   (None, 100, 100, 64) 256         conv1_conv[0][0]                 
__________________________________________________________________________________________________
conv1_relu (Activation)         (None, 100, 100, 64) 0           conv1_bn[0][0]                   
__________________________________________________________________________________________________
pool1_pad (ZeroPadding2D)       (None, 102, 102, 64) 0           conv1_relu[0][0]                 
__________________________________________________________________________________________________
pool1_pool (MaxPooling2D)       (None, 50, 50, 64)   0           pool1_pad[0][0]                  
__________________________________________________________________________________________________
conv2_block1_1_conv (Conv2D)    (None, 50, 50, 64)   4160        pool1_pool[0][0]                 
__________________________________________________________________________________________________
conv2_block1_1_bn (BatchNormali (None, 50, 50, 64)   256         conv2_block1_1_conv[0][0]        
__________________________________________________________________________________________________
conv2_block1_1_relu (Activation (None, 50, 50, 64)   0           conv2_block1_1_bn[0][0]          
__________________________________________________________________________________________________
conv2_block1_2_conv (Conv2D)    (None, 50, 50, 64)   36928       conv2_block1_1_relu[0][0]        
__________________________________________________________________________________________________
conv2_block1_2_bn (BatchNormali (None, 50, 50, 64)   256         conv2_block1_2_conv[0][0]        
__________________________________________________________________________________________________
conv2_block1_2_relu (Activation (None, 50, 50, 64)   0           conv2_block1_2_bn[0][0]          
__________________________________________________________________________________________________
conv2_block1_0_conv (Conv2D)    (None, 50, 50, 256)  16640       pool1_pool[0][0]                 
__________________________________________________________________________________________________
conv2_block1_3_conv (Conv2D)    (None, 50, 50, 256)  16640       conv2_block1_2_relu[0][0]        
__________________________________________________________________________________________________
conv2_block1_0_bn (BatchNormali (None, 50, 50, 256)  1024        conv2_block1_0_conv[0][0]        
__________________________________________________________________________________________________
conv2_block1_3_bn (BatchNormali (None, 50, 50, 256)  1024        conv2_block1_3_conv[0][0]        
__________________________________________________________________________________________________
conv2_block1_add (Add)          (None, 50, 50, 256)  0           conv2_block1_0_bn[0][0]          
                                                                 conv2_block1_3_bn[0][0]          
__________________________________________________________________________________________________
conv2_block1_out (Activation)   (None, 50, 50, 256)  0           conv2_block1_add[0][0]           
__________________________________________________________________________________________________
conv2_block2_1_conv (Conv2D)    (None, 50, 50, 64)   16448       conv2_block1_out[0][0]           
__________________________________________________________________________________________________
conv2_block2_1_bn (BatchNormali (None, 50, 50, 64)   256         conv2_block2_1_conv[0][0]        
__________________________________________________________________________________________________
conv2_block2_1_relu (Activation (None, 50, 50, 64)   0           conv2_block2_1_bn[0][0]          
__________________________________________________________________________________________________
conv2_block2_2_conv (Conv2D)    (None, 50, 50, 64)   36928       conv2_block2_1_relu[0][0]        
__________________________________________________________________________________________________
conv2_block2_2_bn (BatchNormali (None, 50, 50, 64)   256         conv2_block2_2_conv[0][0]        
__________________________________________________________________________________________________
conv2_block2_2_relu (Activation (None, 50, 50, 64)   0           conv2_block2_2_bn[0][0]          
__________________________________________________________________________________________________
conv2_block2_3_conv (Conv2D)    (None, 50, 50, 256)  16640       conv2_block2_2_relu[0][0]        
__________________________________________________________________________________________________
conv2_block2_3_bn (BatchNormali (None, 50, 50, 256)  1024        conv2_block2_3_conv[0][0]        
__________________________________________________________________________________________________
conv2_block2_add (Add)          (None, 50, 50, 256)  0           conv2_block1_out[0][0]           
                                                                 conv2_block2_3_bn[0][0]          
__________________________________________________________________________________________________
conv2_block2_out (Activation)   (None, 50, 50, 256)  0           conv2_block2_add[0][0]           
__________________________________________________________________________________________________
conv2_block3_1_conv (Conv2D)    (None, 50, 50, 64)   16448       conv2_block2_out[0][0]           
__________________________________________________________________________________________________
conv2_block3_1_bn (BatchNormali (None, 50, 50, 64)   256         conv2_block3_1_conv[0][0]        
__________________________________________________________________________________________________
conv2_block3_1_relu (Activation (None, 50, 50, 64)   0           conv2_block3_1_bn[0][0]          
__________________________________________________________________________________________________
conv2_block3_2_conv (Conv2D)    (None, 50, 50, 64)   36928       conv2_block3_1_relu[0][0]        
__________________________________________________________________________________________________
conv2_block3_2_bn (BatchNormali (None, 50, 50, 64)   256         conv2_block3_2_conv[0][0]        
__________________________________________________________________________________________________
conv2_block3_2_relu (Activation (None, 50, 50, 64)   0           conv2_block3_2_bn[0][0]          
__________________________________________________________________________________________________
conv2_block3_3_conv (Conv2D)    (None, 50, 50, 256)  16640       conv2_block3_2_relu[0][0]        
__________________________________________________________________________________________________
conv2_block3_3_bn (BatchNormali (None, 50, 50, 256)  1024        conv2_block3_3_conv[0][0]        
__________________________________________________________________________________________________
conv2_block3_add (Add)          (None, 50, 50, 256)  0           conv2_block2_out[0][0]           
                                                                 conv2_block3_3_bn[0][0]          
__________________________________________________________________________________________________
conv2_block3_out (Activation)   (None, 50, 50, 256)  0           conv2_block3_add[0][0]           
__________________________________________________________________________________________________
conv3_block1_1_conv (Conv2D)    (None, 25, 25, 128)  32896       conv2_block3_out[0][0]           
__________________________________________________________________________________________________
conv3_block1_1_bn (BatchNormali (None, 25, 25, 128)  512         conv3_block1_1_conv[0][0]        
__________________________________________________________________________________________________
conv3_block1_1_relu (Activation (None, 25, 25, 128)  0           conv3_block1_1_bn[0][0]          
__________________________________________________________________________________________________
conv3_block1_2_conv (Conv2D)    (None, 25, 25, 128)  147584      conv3_block1_1_relu[0][0]        
__________________________________________________________________________________________________
conv3_block1_2_bn (BatchNormali (None, 25, 25, 128)  512         conv3_block1_2_conv[0][0]        
__________________________________________________________________________________________________
conv3_block1_2_relu (Activation (None, 25, 25, 128)  0           conv3_block1_2_bn[0][0]          
__________________________________________________________________________________________________
conv3_block1_0_conv (Conv2D)    (None, 25, 25, 512)  131584      conv2_block3_out[0][0]           
__________________________________________________________________________________________________
conv3_block1_3_conv (Conv2D)    (None, 25, 25, 512)  66048       conv3_block1_2_relu[0][0]        
__________________________________________________________________________________________________
conv3_block1_0_bn (BatchNormali (None, 25, 25, 512)  2048        conv3_block1_0_conv[0][0]        
__________________________________________________________________________________________________
conv3_block1_3_bn (BatchNormali (None, 25, 25, 512)  2048        conv3_block1_3_conv[0][0]        
__________________________________________________________________________________________________
conv3_block1_add (Add)          (None, 25, 25, 512)  0           conv3_block1_0_bn[0][0]          
                                                                 conv3_block1_3_bn[0][0]          
__________________________________________________________________________________________________
conv3_block1_out (Activation)   (None, 25, 25, 512)  0           conv3_block1_add[0][0]           
__________________________________________________________________________________________________
conv3_block2_1_conv (Conv2D)    (None, 25, 25, 128)  65664       conv3_block1_out[0][0]           
__________________________________________________________________________________________________
conv3_block2_1_bn (BatchNormali (None, 25, 25, 128)  512         conv3_block2_1_conv[0][0]        
__________________________________________________________________________________________________
conv3_block2_1_relu (Activation (None, 25, 25, 128)  0           conv3_block2_1_bn[0][0]          
__________________________________________________________________________________________________
conv3_block2_2_conv (Conv2D)    (None, 25, 25, 128)  147584      conv3_block2_1_relu[0][0]        
__________________________________________________________________________________________________
conv3_block2_2_bn (BatchNormali (None, 25, 25, 128)  512         conv3_block2_2_conv[0][0]        
__________________________________________________________________________________________________
conv3_block2_2_relu (Activation (None, 25, 25, 128)  0           conv3_block2_2_bn[0][0]          
__________________________________________________________________________________________________
conv3_block2_3_conv (Conv2D)    (None, 25, 25, 512)  66048       conv3_block2_2_relu[0][0]        
__________________________________________________________________________________________________
conv3_block2_3_bn (BatchNormali (None, 25, 25, 512)  2048        conv3_block2_3_conv[0][0]        
__________________________________________________________________________________________________
conv3_block2_add (Add)          (None, 25, 25, 512)  0           conv3_block1_out[0][0]           
                                                                 conv3_block2_3_bn[0][0]          
__________________________________________________________________________________________________
conv3_block2_out (Activation)   (None, 25, 25, 512)  0           conv3_block2_add[0][0]           
__________________________________________________________________________________________________
conv3_block3_1_conv (Conv2D)    (None, 25, 25, 128)  65664       conv3_block2_out[0][0]           
__________________________________________________________________________________________________
conv3_block3_1_bn (BatchNormali (None, 25, 25, 128)  512         conv3_block3_1_conv[0][0]        
__________________________________________________________________________________________________
conv3_block3_1_relu (Activation (None, 25, 25, 128)  0           conv3_block3_1_bn[0][0]          
__________________________________________________________________________________________________
conv3_block3_2_conv (Conv2D)    (None, 25, 25, 128)  147584      conv3_block3_1_relu[0][0]        
__________________________________________________________________________________________________
conv3_block3_2_bn (BatchNormali (None, 25, 25, 128)  512         conv3_block3_2_conv[0][0]        
__________________________________________________________________________________________________
conv3_block3_2_relu (Activation (None, 25, 25, 128)  0           conv3_block3_2_bn[0][0]          
__________________________________________________________________________________________________
conv3_block3_3_conv (Conv2D)    (None, 25, 25, 512)  66048       conv3_block3_2_relu[0][0]        
__________________________________________________________________________________________________
conv3_block3_3_bn (BatchNormali (None, 25, 25, 512)  2048        conv3_block3_3_conv[0][0]        
__________________________________________________________________________________________________
conv3_block3_add (Add)          (None, 25, 25, 512)  0           conv3_block2_out[0][0]           
                                                                 conv3_block3_3_bn[0][0]          
__________________________________________________________________________________________________
conv3_block3_out (Activation)   (None, 25, 25, 512)  0           conv3_block3_add[0][0]           
__________________________________________________________________________________________________
conv3_block4_1_conv (Conv2D)    (None, 25, 25, 128)  65664       conv3_block3_out[0][0]           
__________________________________________________________________________________________________
conv3_block4_1_bn (BatchNormali (None, 25, 25, 128)  512         conv3_block4_1_conv[0][0]        
__________________________________________________________________________________________________
conv3_block4_1_relu (Activation (None, 25, 25, 128)  0           conv3_block4_1_bn[0][0]          
__________________________________________________________________________________________________
conv3_block4_2_conv (Conv2D)    (None, 25, 25, 128)  147584      conv3_block4_1_relu[0][0]        
__________________________________________________________________________________________________
conv3_block4_2_bn (BatchNormali (None, 25, 25, 128)  512         conv3_block4_2_conv[0][0]        
__________________________________________________________________________________________________
conv3_block4_2_relu (Activation (None, 25, 25, 128)  0           conv3_block4_2_bn[0][0]          
__________________________________________________________________________________________________
conv3_block4_3_conv (Conv2D)    (None, 25, 25, 512)  66048       conv3_block4_2_relu[0][0]        
__________________________________________________________________________________________________
conv3_block4_3_bn (BatchNormali (None, 25, 25, 512)  2048        conv3_block4_3_conv[0][0]        
__________________________________________________________________________________________________
conv3_block4_add (Add)          (None, 25, 25, 512)  0           conv3_block3_out[0][0]           
                                                                 conv3_block4_3_bn[0][0]          
__________________________________________________________________________________________________
conv3_block4_out (Activation)   (None, 25, 25, 512)  0           conv3_block4_add[0][0]           
__________________________________________________________________________________________________
conv4_block1_1_conv (Conv2D)    (None, 13, 13, 256)  131328      conv3_block4_out[0][0]           
__________________________________________________________________________________________________
conv4_block1_1_bn (BatchNormali (None, 13, 13, 256)  1024        conv4_block1_1_conv[0][0]        
__________________________________________________________________________________________________
conv4_block1_1_relu (Activation (None, 13, 13, 256)  0           conv4_block1_1_bn[0][0]          
__________________________________________________________________________________________________
conv4_block1_2_conv (Conv2D)    (None, 13, 13, 256)  590080      conv4_block1_1_relu[0][0]        
__________________________________________________________________________________________________
conv4_block1_2_bn (BatchNormali (None, 13, 13, 256)  1024        conv4_block1_2_conv[0][0]        
__________________________________________________________________________________________________
conv4_block1_2_relu (Activation (None, 13, 13, 256)  0           conv4_block1_2_bn[0][0]          
__________________________________________________________________________________________________
conv4_block1_0_conv (Conv2D)    (None, 13, 13, 1024) 525312      conv3_block4_out[0][0]           
__________________________________________________________________________________________________
conv4_block1_3_conv (Conv2D)    (None, 13, 13, 1024) 263168      conv4_block1_2_relu[0][0]        
__________________________________________________________________________________________________
conv4_block1_0_bn (BatchNormali (None, 13, 13, 1024) 4096        conv4_block1_0_conv[0][0]        
__________________________________________________________________________________________________
conv4_block1_3_bn (BatchNormali (None, 13, 13, 1024) 4096        conv4_block1_3_conv[0][0]        
__________________________________________________________________________________________________
conv4_block1_add (Add)          (None, 13, 13, 1024) 0           conv4_block1_0_bn[0][0]          
                                                                 conv4_block1_3_bn[0][0]          
__________________________________________________________________________________________________
conv4_block1_out (Activation)   (None, 13, 13, 1024) 0           conv4_block1_add[0][0]           
__________________________________________________________________________________________________
conv4_block2_1_conv (Conv2D)    (None, 13, 13, 256)  262400      conv4_block1_out[0][0]           
__________________________________________________________________________________________________
conv4_block2_1_bn (BatchNormali (None, 13, 13, 256)  1024        conv4_block2_1_conv[0][0]        
__________________________________________________________________________________________________
conv4_block2_1_relu (Activation (None, 13, 13, 256)  0           conv4_block2_1_bn[0][0]          
__________________________________________________________________________________________________
conv4_block2_2_conv (Conv2D)    (None, 13, 13, 256)  590080      conv4_block2_1_relu[0][0]        
__________________________________________________________________________________________________
conv4_block2_2_bn (BatchNormali (None, 13, 13, 256)  1024        conv4_block2_2_conv[0][0]        
__________________________________________________________________________________________________
conv4_block2_2_relu (Activation (None, 13, 13, 256)  0           conv4_block2_2_bn[0][0]          
__________________________________________________________________________________________________
conv4_block2_3_conv (Conv2D)    (None, 13, 13, 1024) 263168      conv4_block2_2_relu[0][0]        
__________________________________________________________________________________________________
conv4_block2_3_bn (BatchNormali (None, 13, 13, 1024) 4096        conv4_block2_3_conv[0][0]        
__________________________________________________________________________________________________
conv4_block2_add (Add)          (None, 13, 13, 1024) 0           conv4_block1_out[0][0]           
                                                                 conv4_block2_3_bn[0][0]          
__________________________________________________________________________________________________
conv4_block2_out (Activation)   (None, 13, 13, 1024) 0           conv4_block2_add[0][0]           
__________________________________________________________________________________________________
conv4_block3_1_conv (Conv2D)    (None, 13, 13, 256)  262400      conv4_block2_out[0][0]           
__________________________________________________________________________________________________
conv4_block3_1_bn (BatchNormali (None, 13, 13, 256)  1024        conv4_block3_1_conv[0][0]        
__________________________________________________________________________________________________
conv4_block3_1_relu (Activation (None, 13, 13, 256)  0           conv4_block3_1_bn[0][0]          
__________________________________________________________________________________________________
conv4_block3_2_conv (Conv2D)    (None, 13, 13, 256)  590080      conv4_block3_1_relu[0][0]        
__________________________________________________________________________________________________
conv4_block3_2_bn (BatchNormali (None, 13, 13, 256)  1024        conv4_block3_2_conv[0][0]        
__________________________________________________________________________________________________
conv4_block3_2_relu (Activation (None, 13, 13, 256)  0           conv4_block3_2_bn[0][0]          
__________________________________________________________________________________________________
conv4_block3_3_conv (Conv2D)    (None, 13, 13, 1024) 263168      conv4_block3_2_relu[0][0]        
__________________________________________________________________________________________________
conv4_block3_3_bn (BatchNormali (None, 13, 13, 1024) 4096        conv4_block3_3_conv[0][0]        
__________________________________________________________________________________________________
conv4_block3_add (Add)          (None, 13, 13, 1024) 0           conv4_block2_out[0][0]           
                                                                 conv4_block3_3_bn[0][0]          
__________________________________________________________________________________________________
conv4_block3_out (Activation)   (None, 13, 13, 1024) 0           conv4_block3_add[0][0]           
__________________________________________________________________________________________________
conv4_block4_1_conv (Conv2D)    (None, 13, 13, 256)  262400      conv4_block3_out[0][0]           
__________________________________________________________________________________________________
conv4_block4_1_bn (BatchNormali (None, 13, 13, 256)  1024        conv4_block4_1_conv[0][0]        
__________________________________________________________________________________________________
conv4_block4_1_relu (Activation (None, 13, 13, 256)  0           conv4_block4_1_bn[0][0]          
__________________________________________________________________________________________________
conv4_block4_2_conv (Conv2D)    (None, 13, 13, 256)  590080      conv4_block4_1_relu[0][0]        
__________________________________________________________________________________________________
conv4_block4_2_bn (BatchNormali (None, 13, 13, 256)  1024        conv4_block4_2_conv[0][0]        
__________________________________________________________________________________________________
conv4_block4_2_relu (Activation (None, 13, 13, 256)  0           conv4_block4_2_bn[0][0]          
__________________________________________________________________________________________________
conv4_block4_3_conv (Conv2D)    (None, 13, 13, 1024) 263168      conv4_block4_2_relu[0][0]        
__________________________________________________________________________________________________
conv4_block4_3_bn (BatchNormali (None, 13, 13, 1024) 4096        conv4_block4_3_conv[0][0]        
__________________________________________________________________________________________________
conv4_block4_add (Add)          (None, 13, 13, 1024) 0           conv4_block3_out[0][0]           
                                                                 conv4_block4_3_bn[0][0]          
__________________________________________________________________________________________________
conv4_block4_out (Activation)   (None, 13, 13, 1024) 0           conv4_block4_add[0][0]           
__________________________________________________________________________________________________
conv4_block5_1_conv (Conv2D)    (None, 13, 13, 256)  262400      conv4_block4_out[0][0]           
__________________________________________________________________________________________________
conv4_block5_1_bn (BatchNormali (None, 13, 13, 256)  1024        conv4_block5_1_conv[0][0]        
__________________________________________________________________________________________________
conv4_block5_1_relu (Activation (None, 13, 13, 256)  0           conv4_block5_1_bn[0][0]          
__________________________________________________________________________________________________
conv4_block5_2_conv (Conv2D)    (None, 13, 13, 256)  590080      conv4_block5_1_relu[0][0]        
__________________________________________________________________________________________________
conv4_block5_2_bn (BatchNormali (None, 13, 13, 256)  1024        conv4_block5_2_conv[0][0]        
__________________________________________________________________________________________________
conv4_block5_2_relu (Activation (None, 13, 13, 256)  0           conv4_block5_2_bn[0][0]          
__________________________________________________________________________________________________
conv4_block5_3_conv (Conv2D)    (None, 13, 13, 1024) 263168      conv4_block5_2_relu[0][0]        
__________________________________________________________________________________________________
conv4_block5_3_bn (BatchNormali (None, 13, 13, 1024) 4096        conv4_block5_3_conv[0][0]        
__________________________________________________________________________________________________
conv4_block5_add (Add)          (None, 13, 13, 1024) 0           conv4_block4_out[0][0]           
                                                                 conv4_block5_3_bn[0][0]          
__________________________________________________________________________________________________
conv4_block5_out (Activation)   (None, 13, 13, 1024) 0           conv4_block5_add[0][0]           
__________________________________________________________________________________________________
conv4_block6_1_conv (Conv2D)    (None, 13, 13, 256)  262400      conv4_block5_out[0][0]           
__________________________________________________________________________________________________
conv4_block6_1_bn (BatchNormali (None, 13, 13, 256)  1024        conv4_block6_1_conv[0][0]        
__________________________________________________________________________________________________
conv4_block6_1_relu (Activation (None, 13, 13, 256)  0           conv4_block6_1_bn[0][0]          
__________________________________________________________________________________________________
conv4_block6_2_conv (Conv2D)    (None, 13, 13, 256)  590080      conv4_block6_1_relu[0][0]        
__________________________________________________________________________________________________
conv4_block6_2_bn (BatchNormali (None, 13, 13, 256)  1024        conv4_block6_2_conv[0][0]        
__________________________________________________________________________________________________
conv4_block6_2_relu (Activation (None, 13, 13, 256)  0           conv4_block6_2_bn[0][0]          
__________________________________________________________________________________________________
conv4_block6_3_conv (Conv2D)    (None, 13, 13, 1024) 263168      conv4_block6_2_relu[0][0]        
__________________________________________________________________________________________________
conv4_block6_3_bn (BatchNormali (None, 13, 13, 1024) 4096        conv4_block6_3_conv[0][0]        
__________________________________________________________________________________________________
conv4_block6_add (Add)          (None, 13, 13, 1024) 0           conv4_block5_out[0][0]           
                                                                 conv4_block6_3_bn[0][0]          
__________________________________________________________________________________________________
conv4_block6_out (Activation)   (None, 13, 13, 1024) 0           conv4_block6_add[0][0]           
__________________________________________________________________________________________________
conv5_block1_1_conv (Conv2D)    (None, 7, 7, 512)    524800      conv4_block6_out[0][0]           
__________________________________________________________________________________________________
conv5_block1_1_bn (BatchNormali (None, 7, 7, 512)    2048        conv5_block1_1_conv[0][0]        
__________________________________________________________________________________________________
conv5_block1_1_relu (Activation (None, 7, 7, 512)    0           conv5_block1_1_bn[0][0]          
__________________________________________________________________________________________________
conv5_block1_2_conv (Conv2D)    (None, 7, 7, 512)    2359808     conv5_block1_1_relu[0][0]        
__________________________________________________________________________________________________
conv5_block1_2_bn (BatchNormali (None, 7, 7, 512)    2048        conv5_block1_2_conv[0][0]        
__________________________________________________________________________________________________
conv5_block1_2_relu (Activation (None, 7, 7, 512)    0           conv5_block1_2_bn[0][0]          
__________________________________________________________________________________________________
conv5_block1_0_conv (Conv2D)    (None, 7, 7, 2048)   2099200     conv4_block6_out[0][0]           
__________________________________________________________________________________________________
conv5_block1_3_conv (Conv2D)    (None, 7, 7, 2048)   1050624     conv5_block1_2_relu[0][0]        
__________________________________________________________________________________________________
conv5_block1_0_bn (BatchNormali (None, 7, 7, 2048)   8192        conv5_block1_0_conv[0][0]        
__________________________________________________________________________________________________
conv5_block1_3_bn (BatchNormali (None, 7, 7, 2048)   8192        conv5_block1_3_conv[0][0]        
__________________________________________________________________________________________________
conv5_block1_add (Add)          (None, 7, 7, 2048)   0           conv5_block1_0_bn[0][0]          
                                                                 conv5_block1_3_bn[0][0]          
__________________________________________________________________________________________________
conv5_block1_out (Activation)   (None, 7, 7, 2048)   0           conv5_block1_add[0][0]           
__________________________________________________________________________________________________
conv5_block2_1_conv (Conv2D)    (None, 7, 7, 512)    1049088     conv5_block1_out[0][0]           
__________________________________________________________________________________________________
conv5_block2_1_bn (BatchNormali (None, 7, 7, 512)    2048        conv5_block2_1_conv[0][0]        
__________________________________________________________________________________________________
conv5_block2_1_relu (Activation (None, 7, 7, 512)    0           conv5_block2_1_bn[0][0]          
__________________________________________________________________________________________________
conv5_block2_2_conv (Conv2D)    (None, 7, 7, 512)    2359808     conv5_block2_1_relu[0][0]        
__________________________________________________________________________________________________
conv5_block2_2_bn (BatchNormali (None, 7, 7, 512)    2048        conv5_block2_2_conv[0][0]        
__________________________________________________________________________________________________
conv5_block2_2_relu (Activation (None, 7, 7, 512)    0           conv5_block2_2_bn[0][0]          
__________________________________________________________________________________________________
conv5_block2_3_conv (Conv2D)    (None, 7, 7, 2048)   1050624     conv5_block2_2_relu[0][0]        
__________________________________________________________________________________________________
conv5_block2_3_bn (BatchNormali (None, 7, 7, 2048)   8192        conv5_block2_3_conv[0][0]        
__________________________________________________________________________________________________
conv5_block2_add (Add)          (None, 7, 7, 2048)   0           conv5_block1_out[0][0]           
                                                                 conv5_block2_3_bn[0][0]          
__________________________________________________________________________________________________
conv5_block2_out (Activation)   (None, 7, 7, 2048)   0           conv5_block2_add[0][0]           
__________________________________________________________________________________________________
conv5_block3_1_conv (Conv2D)    (None, 7, 7, 512)    1049088     conv5_block2_out[0][0]           
__________________________________________________________________________________________________
conv5_block3_1_bn (BatchNormali (None, 7, 7, 512)    2048        conv5_block3_1_conv[0][0]        
__________________________________________________________________________________________________
conv5_block3_1_relu (Activation (None, 7, 7, 512)    0           conv5_block3_1_bn[0][0]          
__________________________________________________________________________________________________
conv5_block3_2_conv (Conv2D)    (None, 7, 7, 512)    2359808     conv5_block3_1_relu[0][0]        
__________________________________________________________________________________________________
conv5_block3_2_bn (BatchNormali (None, 7, 7, 512)    2048        conv5_block3_2_conv[0][0]        
__________________________________________________________________________________________________
conv5_block3_2_relu (Activation (None, 7, 7, 512)    0           conv5_block3_2_bn[0][0]          
__________________________________________________________________________________________________
conv5_block3_3_conv (Conv2D)    (None, 7, 7, 2048)   1050624     conv5_block3_2_relu[0][0]        
__________________________________________________________________________________________________
conv5_block3_3_bn (BatchNormali (None, 7, 7, 2048)   8192        conv5_block3_3_conv[0][0]        
__________________________________________________________________________________________________
conv5_block3_add (Add)          (None, 7, 7, 2048)   0           conv5_block2_out[0][0]           
                                                                 conv5_block3_3_bn[0][0]          
__________________________________________________________________________________________________
conv5_block3_out (Activation)   (None, 7, 7, 2048)   0           conv5_block3_add[0][0]           
__________________________________________________________________________________________________
flatten_3 (Flatten)             (None, 100352)       0           conv5_block3_out[0][0]           
__________________________________________________________________________________________________
dense_6 (Dense)                 (None, 128)          12845184    flatten_3[0][0]                  
__________________________________________________________________________________________________
dense_7 (Dense)                 (None, 1)            129         dense_6[0][0]                    
==================================================================================================
Total params: 36,433,025
Trainable params: 12,845,313
Non-trainable params: 23,587,712
__________________________________________________________________________________________________
None
Found 145 images belonging to 2 classes.
Found 36 images belonging to 2 classes.
…
: 0.6672 - accuracy: 0.613810/10 [==============================] - 36s 4s/step - loss: 0.6672 - accuracy: 0.6138 - val_loss: 0.6683 - val_accuracy: 0.6111
> 56.522
Model: "functional_9"
__________________________________________________________________________________________________
Layer (type)                    Output Shape         Param #     Connected to                     
==================================================================================================
input_4 (InputLayer)            [(None, 200, 200, 3) 0                                            
__________________________________________________________________________________________________
zero_padding2d (ZeroPadding2D)  (None, 206, 206, 3)  0           input_4[0][0]                    
__________________________________________________________________________________________________
conv1/conv (Conv2D)             (None, 100, 100, 64) 9408        zero_padding2d[0][0]             
__________________________________________________________________________________________________
conv1/bn (BatchNormalization)   (None, 100, 100, 64) 256         conv1/conv[0][0]                 
__________________________________________________________________________________________________
conv1/relu (Activation)         (None, 100, 100, 64) 0           conv1/bn[0][0]                   
__________________________________________________________________________________________________
zero_padding2d_1 (ZeroPadding2D (None, 102, 102, 64) 0           conv1/relu[0][0]                 
__________________________________________________________________________________________________
pool1 (MaxPooling2D)            (None, 50, 50, 64)   0           zero_padding2d_1[0][0]           
__________________________________________________________________________________________________
conv2_block1_0_bn (BatchNormali (None, 50, 50, 64)   256         pool1[0][0]                      
__________________________________________________________________________________________________
conv2_block1_0_relu (Activation (None, 50, 50, 64)   0           conv2_block1_0_bn[0][0]          
__________________________________________________________________________________________________
conv2_block1_1_conv (Conv2D)    (None, 50, 50, 128)  8192        conv2_block1_0_relu[0][0]        
__________________________________________________________________________________________________
conv2_block1_1_bn (BatchNormali (None, 50, 50, 128)  512         conv2_block1_1_conv[0][0]        
__________________________________________________________________________________________________
conv2_block1_1_relu (Activation (None, 50, 50, 128)  0           conv2_block1_1_bn[0][0]          
__________________________________________________________________________________________________
conv2_block1_2_conv (Conv2D)    (None, 50, 50, 32)   36864       conv2_block1_1_relu[0][0]        
__________________________________________________________________________________________________
conv2_block1_concat (Concatenat (None, 50, 50, 96)   0           pool1[0][0]                      
                                                                 conv2_block1_2_conv[0][0]        
__________________________________________________________________________________________________
conv2_block2_0_bn (BatchNormali (None, 50, 50, 96)   384         conv2_block1_concat[0][0]        
__________________________________________________________________________________________________
conv2_block2_0_relu (Activation (None, 50, 50, 96)   0           conv2_block2_0_bn[0][0]          
__________________________________________________________________________________________________
conv2_block2_1_conv (Conv2D)    (None, 50, 50, 128)  12288       conv2_block2_0_relu[0][0]        
__________________________________________________________________________________________________
conv2_block2_1_bn (BatchNormali (None, 50, 50, 128)  512         conv2_block2_1_conv[0][0]        
__________________________________________________________________________________________________
conv2_block2_1_relu (Activation (None, 50, 50, 128)  0           conv2_block2_1_bn[0][0]          
__________________________________________________________________________________________________
conv2_block2_2_conv (Conv2D)    (None, 50, 50, 32)   36864       conv2_block2_1_relu[0][0]        
__________________________________________________________________________________________________
conv2_block2_concat (Concatenat (None, 50, 50, 128)  0           conv2_block1_concat[0][0]        
                                                                 conv2_block2_2_conv[0][0]        
__________________________________________________________________________________________________
conv2_block3_0_bn (BatchNormali (None, 50, 50, 128)  512         conv2_block2_concat[0][0]        
__________________________________________________________________________________________________
conv2_block3_0_relu (Activation (None, 50, 50, 128)  0           conv2_block3_0_bn[0][0]          
__________________________________________________________________________________________________
conv2_block3_1_conv (Conv2D)    (None, 50, 50, 128)  16384       conv2_block3_0_relu[0][0]        
__________________________________________________________________________________________________
conv2_block3_1_bn (BatchNormali (None, 50, 50, 128)  512         conv2_block3_1_conv[0][0]        
__________________________________________________________________________________________________
conv2_block3_1_relu (Activation (None, 50, 50, 128)  0           conv2_block3_1_bn[0][0]          
__________________________________________________________________________________________________
conv2_block3_2_conv (Conv2D)    (None, 50, 50, 32)   36864       conv2_block3_1_relu[0][0]        
__________________________________________________________________________________________________
conv2_block3_concat (Concatenat (None, 50, 50, 160)  0           conv2_block2_concat[0][0]        
                                                                 conv2_block3_2_conv[0][0]        
__________________________________________________________________________________________________
conv2_block4_0_bn (BatchNormali (None, 50, 50, 160)  640         conv2_block3_concat[0][0]        
__________________________________________________________________________________________________
conv2_block4_0_relu (Activation (None, 50, 50, 160)  0           conv2_block4_0_bn[0][0]          
__________________________________________________________________________________________________
conv2_block4_1_conv (Conv2D)    (None, 50, 50, 128)  20480       conv2_block4_0_relu[0][0]        
__________________________________________________________________________________________________
conv2_block4_1_bn (BatchNormali (None, 50, 50, 128)  512         conv2_block4_1_conv[0][0]        
__________________________________________________________________________________________________
conv2_block4_1_relu (Activation (None, 50, 50, 128)  0           conv2_block4_1_bn[0][0]          
__________________________________________________________________________________________________
conv2_block4_2_conv (Conv2D)    (None, 50, 50, 32)   36864       conv2_block4_1_relu[0][0]        
__________________________________________________________________________________________________
conv2_block4_concat (Concatenat (None, 50, 50, 192)  0           conv2_block3_concat[0][0]        
                                                                 conv2_block4_2_conv[0][0]        
__________________________________________________________________________________________________
conv2_block5_0_bn (BatchNormali (None, 50, 50, 192)  768         conv2_block4_concat[0][0]        
__________________________________________________________________________________________________
conv2_block5_0_relu (Activation (None, 50, 50, 192)  0           conv2_block5_0_bn[0][0]          
__________________________________________________________________________________________________
conv2_block5_1_conv (Conv2D)    (None, 50, 50, 128)  24576       conv2_block5_0_relu[0][0]        
__________________________________________________________________________________________________
conv2_block5_1_bn (BatchNormali (None, 50, 50, 128)  512         conv2_block5_1_conv[0][0]        
__________________________________________________________________________________________________
conv2_block5_1_relu (Activation (None, 50, 50, 128)  0           conv2_block5_1_bn[0][0]          
__________________________________________________________________________________________________
conv2_block5_2_conv (Conv2D)    (None, 50, 50, 32)   36864       conv2_block5_1_relu[0][0]        
__________________________________________________________________________________________________
conv2_block5_concat (Concatenat (None, 50, 50, 224)  0           conv2_block4_concat[0][0]        
                                                                 conv2_block5_2_conv[0][0]        
__________________________________________________________________________________________________
conv2_block6_0_bn (BatchNormali (None, 50, 50, 224)  896         conv2_block5_concat[0][0]        
__________________________________________________________________________________________________
conv2_block6_0_relu (Activation (None, 50, 50, 224)  0           conv2_block6_0_bn[0][0]          
__________________________________________________________________________________________________
conv2_block6_1_conv (Conv2D)    (None, 50, 50, 128)  28672       conv2_block6_0_relu[0][0]        
__________________________________________________________________________________________________
conv2_block6_1_bn (BatchNormali (None, 50, 50, 128)  512         conv2_block6_1_conv[0][0]        
__________________________________________________________________________________________________
conv2_block6_1_relu (Activation (None, 50, 50, 128)  0           conv2_block6_1_bn[0][0]          
__________________________________________________________________________________________________
conv2_block6_2_conv (Conv2D)    (None, 50, 50, 32)   36864       conv2_block6_1_relu[0][0]        
__________________________________________________________________________________________________
conv2_block6_concat (Concatenat (None, 50, 50, 256)  0           conv2_block5_concat[0][0]        
                                                                 conv2_block6_2_conv[0][0]        
__________________________________________________________________________________________________
pool2_bn (BatchNormalization)   (None, 50, 50, 256)  1024        conv2_block6_concat[0][0]        
__________________________________________________________________________________________________
pool2_relu (Activation)         (None, 50, 50, 256)  0           pool2_bn[0][0]                   
__________________________________________________________________________________________________
pool2_conv (Conv2D)             (None, 50, 50, 128)  32768       pool2_relu[0][0]                 
__________________________________________________________________________________________________
pool2_pool (AveragePooling2D)   (None, 25, 25, 128)  0           pool2_conv[0][0]                 
__________________________________________________________________________________________________
conv3_block1_0_bn (BatchNormali (None, 25, 25, 128)  512         pool2_pool[0][0]                 
__________________________________________________________________________________________________
conv3_block1_0_relu (Activation (None, 25, 25, 128)  0           conv3_block1_0_bn[0][0]          
__________________________________________________________________________________________________
conv3_block1_1_conv (Conv2D)    (None, 25, 25, 128)  16384       conv3_block1_0_relu[0][0]        
__________________________________________________________________________________________________
conv3_block1_1_bn (BatchNormali (None, 25, 25, 128)  512         conv3_block1_1_conv[0][0]        
__________________________________________________________________________________________________
conv3_block1_1_relu (Activation (None, 25, 25, 128)  0           conv3_block1_1_bn[0][0]          
__________________________________________________________________________________________________
conv3_block1_2_conv (Conv2D)    (None, 25, 25, 32)   36864       conv3_block1_1_relu[0][0]        
__________________________________________________________________________________________________
conv3_block1_concat (Concatenat (None, 25, 25, 160)  0           pool2_pool[0][0]                 
                                                                 conv3_block1_2_conv[0][0]        
__________________________________________________________________________________________________
conv3_block2_0_bn (BatchNormali (None, 25, 25, 160)  640         conv3_block1_concat[0][0]        
__________________________________________________________________________________________________
conv3_block2_0_relu (Activation (None, 25, 25, 160)  0           conv3_block2_0_bn[0][0]          
__________________________________________________________________________________________________
conv3_block2_1_conv (Conv2D)    (None, 25, 25, 128)  20480       conv3_block2_0_relu[0][0]        
__________________________________________________________________________________________________
conv3_block2_1_bn (BatchNormali (None, 25, 25, 128)  512         conv3_block2_1_conv[0][0]        
__________________________________________________________________________________________________
conv3_block2_1_relu (Activation (None, 25, 25, 128)  0           conv3_block2_1_bn[0][0]          
__________________________________________________________________________________________________
conv3_block2_2_conv (Conv2D)    (None, 25, 25, 32)   36864       conv3_block2_1_relu[0][0]        
__________________________________________________________________________________________________
conv3_block2_concat (Concatenat (None, 25, 25, 192)  0           conv3_block1_concat[0][0]        
                                                                 conv3_block2_2_conv[0][0]        
__________________________________________________________________________________________________
conv3_block3_0_bn (BatchNormali (None, 25, 25, 192)  768         conv3_block2_concat[0][0]        
__________________________________________________________________________________________________
conv3_block3_0_relu (Activation (None, 25, 25, 192)  0           conv3_block3_0_bn[0][0]          
__________________________________________________________________________________________________
conv3_block3_1_conv (Conv2D)    (None, 25, 25, 128)  24576       conv3_block3_0_relu[0][0]        
__________________________________________________________________________________________________
conv3_block3_1_bn (BatchNormali (None, 25, 25, 128)  512         conv3_block3_1_conv[0][0]        
__________________________________________________________________________________________________
conv3_block3_1_relu (Activation (None, 25, 25, 128)  0           conv3_block3_1_bn[0][0]          
__________________________________________________________________________________________________
conv3_block3_2_conv (Conv2D)    (None, 25, 25, 32)   36864       conv3_block3_1_relu[0][0]        
__________________________________________________________________________________________________
conv3_block3_concat (Concatenat (None, 25, 25, 224)  0           conv3_block2_concat[0][0]        
                                                                 conv3_block3_2_conv[0][0]        
__________________________________________________________________________________________________
conv3_block4_0_bn (BatchNormali (None, 25, 25, 224)  896         conv3_block3_concat[0][0]        
__________________________________________________________________________________________________
conv3_block4_0_relu (Activation (None, 25, 25, 224)  0           conv3_block4_0_bn[0][0]          
__________________________________________________________________________________________________
conv3_block4_1_conv (Conv2D)    (None, 25, 25, 128)  28672       conv3_block4_0_relu[0][0]        
__________________________________________________________________________________________________
conv3_block4_1_bn (BatchNormali (None, 25, 25, 128)  512         conv3_block4_1_conv[0][0]        
__________________________________________________________________________________________________
conv3_block4_1_relu (Activation (None, 25, 25, 128)  0           conv3_block4_1_bn[0][0]          
__________________________________________________________________________________________________
conv3_block4_2_conv (Conv2D)    (None, 25, 25, 32)   36864       conv3_block4_1_relu[0][0]        
__________________________________________________________________________________________________
conv3_block4_concat (Concatenat (None, 25, 25, 256)  0           conv3_block3_concat[0][0]        
                                                                 conv3_block4_2_conv[0][0]        
__________________________________________________________________________________________________
conv3_block5_0_bn (BatchNormali (None, 25, 25, 256)  1024        conv3_block4_concat[0][0]        
__________________________________________________________________________________________________
conv3_block5_0_relu (Activation (None, 25, 25, 256)  0           conv3_block5_0_bn[0][0]          
__________________________________________________________________________________________________
conv3_block5_1_conv (Conv2D)    (None, 25, 25, 128)  32768       conv3_block5_0_relu[0][0]        
__________________________________________________________________________________________________
conv3_block5_1_bn (BatchNormali (None, 25, 25, 128)  512         conv3_block5_1_conv[0][0]        
__________________________________________________________________________________________________
conv3_block5_1_relu (Activation (None, 25, 25, 128)  0           conv3_block5_1_bn[0][0]          
__________________________________________________________________________________________________
conv3_block5_2_conv (Conv2D)    (None, 25, 25, 32)   36864       conv3_block5_1_relu[0][0]        
__________________________________________________________________________________________________
conv3_block5_concat (Concatenat (None, 25, 25, 288)  0           conv3_block4_concat[0][0]        
                                                                 conv3_block5_2_conv[0][0]        
__________________________________________________________________________________________________
conv3_block6_0_bn (BatchNormali (None, 25, 25, 288)  1152        conv3_block5_concat[0][0]        
__________________________________________________________________________________________________
conv3_block6_0_relu (Activation (None, 25, 25, 288)  0           conv3_block6_0_bn[0][0]          
__________________________________________________________________________________________________
conv3_block6_1_conv (Conv2D)    (None, 25, 25, 128)  36864       conv3_block6_0_relu[0][0]        
__________________________________________________________________________________________________
conv3_block6_1_bn (BatchNormali (None, 25, 25, 128)  512         conv3_block6_1_conv[0][0]        
__________________________________________________________________________________________________
conv3_block6_1_relu (Activation (None, 25, 25, 128)  0           conv3_block6_1_bn[0][0]          
__________________________________________________________________________________________________
conv3_block6_2_conv (Conv2D)    (None, 25, 25, 32)   36864       conv3_block6_1_relu[0][0]        
__________________________________________________________________________________________________
conv3_block6_concat (Concatenat (None, 25, 25, 320)  0           conv3_block5_concat[0][0]        
                                                                 conv3_block6_2_conv[0][0]        
__________________________________________________________________________________________________
conv3_block7_0_bn (BatchNormali (None, 25, 25, 320)  1280        conv3_block6_concat[0][0]        
__________________________________________________________________________________________________
conv3_block7_0_relu (Activation (None, 25, 25, 320)  0           conv3_block7_0_bn[0][0]          
__________________________________________________________________________________________________
conv3_block7_1_conv (Conv2D)    (None, 25, 25, 128)  40960       conv3_block7_0_relu[0][0]        
__________________________________________________________________________________________________
conv3_block7_1_bn (BatchNormali (None, 25, 25, 128)  512         conv3_block7_1_conv[0][0]        
__________________________________________________________________________________________________
conv3_block7_1_relu (Activation (None, 25, 25, 128)  0           conv3_block7_1_bn[0][0]          
__________________________________________________________________________________________________
conv3_block7_2_conv (Conv2D)    (None, 25, 25, 32)   36864       conv3_block7_1_relu[0][0]        
__________________________________________________________________________________________________
conv3_block7_concat (Concatenat (None, 25, 25, 352)  0           conv3_block6_concat[0][0]        
                                                                 conv3_block7_2_conv[0][0]        
__________________________________________________________________________________________________
conv3_block8_0_bn (BatchNormali (None, 25, 25, 352)  1408        conv3_block7_concat[0][0]        
__________________________________________________________________________________________________
conv3_block8_0_relu (Activation (None, 25, 25, 352)  0           conv3_block8_0_bn[0][0]          
__________________________________________________________________________________________________
conv3_block8_1_conv (Conv2D)    (None, 25, 25, 128)  45056       conv3_block8_0_relu[0][0]        
__________________________________________________________________________________________________
conv3_block8_1_bn (BatchNormali (None, 25, 25, 128)  512         conv3_block8_1_conv[0][0]        
__________________________________________________________________________________________________
conv3_block8_1_relu (Activation (None, 25, 25, 128)  0           conv3_block8_1_bn[0][0]          
__________________________________________________________________________________________________
conv3_block8_2_conv (Conv2D)    (None, 25, 25, 32)   36864       conv3_block8_1_relu[0][0]        
__________________________________________________________________________________________________
conv3_block8_concat (Concatenat (None, 25, 25, 384)  0           conv3_block7_concat[0][0]        
                                                                 conv3_block8_2_conv[0][0]        
__________________________________________________________________________________________________
conv3_block9_0_bn (BatchNormali (None, 25, 25, 384)  1536        conv3_block8_concat[0][0]        
__________________________________________________________________________________________________
conv3_block9_0_relu (Activation (None, 25, 25, 384)  0           conv3_block9_0_bn[0][0]          
__________________________________________________________________________________________________
conv3_block9_1_conv (Conv2D)    (None, 25, 25, 128)  49152       conv3_block9_0_relu[0][0]        
__________________________________________________________________________________________________
conv3_block9_1_bn (BatchNormali (None, 25, 25, 128)  512         conv3_block9_1_conv[0][0]        
__________________________________________________________________________________________________
conv3_block9_1_relu (Activation (None, 25, 25, 128)  0           conv3_block9_1_bn[0][0]          
__________________________________________________________________________________________________
conv3_block9_2_conv (Conv2D)    (None, 25, 25, 32)   36864       conv3_block9_1_relu[0][0]        
__________________________________________________________________________________________________
conv3_block9_concat (Concatenat (None, 25, 25, 416)  0           conv3_block8_concat[0][0]        
                                                                 conv3_block9_2_conv[0][0]        
__________________________________________________________________________________________________
conv3_block10_0_bn (BatchNormal (None, 25, 25, 416)  1664        conv3_block9_concat[0][0]        
__________________________________________________________________________________________________
conv3_block10_0_relu (Activatio (None, 25, 25, 416)  0           conv3_block10_0_bn[0][0]         
__________________________________________________________________________________________________
conv3_block10_1_conv (Conv2D)   (None, 25, 25, 128)  53248       conv3_block10_0_relu[0][0]       
__________________________________________________________________________________________________
conv3_block10_1_bn (BatchNormal (None, 25, 25, 128)  512         conv3_block10_1_conv[0][0]       
__________________________________________________________________________________________________
conv3_block10_1_relu (Activatio (None, 25, 25, 128)  0           conv3_block10_1_bn[0][0]         
__________________________________________________________________________________________________
conv3_block10_2_conv (Conv2D)   (None, 25, 25, 32)   36864       conv3_block10_1_relu[0][0]       
__________________________________________________________________________________________________
conv3_block10_concat (Concatena (None, 25, 25, 448)  0           conv3_block9_concat[0][0]        
                                                                 conv3_block10_2_conv[0][0]       
__________________________________________________________________________________________________
conv3_block11_0_bn (BatchNormal (None, 25, 25, 448)  1792        conv3_block10_concat[0][0]       
__________________________________________________________________________________________________
conv3_block11_0_relu (Activatio (None, 25, 25, 448)  0           conv3_block11_0_bn[0][0]         
__________________________________________________________________________________________________
conv3_block11_1_conv (Conv2D)   (None, 25, 25, 128)  57344       conv3_block11_0_relu[0][0]       
__________________________________________________________________________________________________
conv3_block11_1_bn (BatchNormal (None, 25, 25, 128)  512         conv3_block11_1_conv[0][0]       
__________________________________________________________________________________________________
conv3_block11_1_relu (Activatio (None, 25, 25, 128)  0           conv3_block11_1_bn[0][0]         
__________________________________________________________________________________________________
conv3_block11_2_conv (Conv2D)   (None, 25, 25, 32)   36864       conv3_block11_1_relu[0][0]       
__________________________________________________________________________________________________
conv3_block11_concat (Concatena (None, 25, 25, 480)  0           conv3_block10_concat[0][0]       
                                                                 conv3_block11_2_conv[0][0]       
__________________________________________________________________________________________________
conv3_block12_0_bn (BatchNormal (None, 25, 25, 480)  1920        conv3_block11_concat[0][0]       
__________________________________________________________________________________________________
conv3_block12_0_relu (Activatio (None, 25, 25, 480)  0           conv3_block12_0_bn[0][0]         
__________________________________________________________________________________________________
conv3_block12_1_conv (Conv2D)   (None, 25, 25, 128)  61440       conv3_block12_0_relu[0][0]       
__________________________________________________________________________________________________
conv3_block12_1_bn (BatchNormal (None, 25, 25, 128)  512         conv3_block12_1_conv[0][0]       
__________________________________________________________________________________________________
conv3_block12_1_relu (Activatio (None, 25, 25, 128)  0           conv3_block12_1_bn[0][0]         
__________________________________________________________________________________________________
conv3_block12_2_conv (Conv2D)   (None, 25, 25, 32)   36864       conv3_block12_1_relu[0][0]       
__________________________________________________________________________________________________
conv3_block12_concat (Concatena (None, 25, 25, 512)  0           conv3_block11_concat[0][0]       
                                                                 conv3_block12_2_conv[0][0]       
__________________________________________________________________________________________________
pool3_bn (BatchNormalization)   (None, 25, 25, 512)  2048        conv3_block12_concat[0][0]       
__________________________________________________________________________________________________
pool3_relu (Activation)         (None, 25, 25, 512)  0           pool3_bn[0][0]                   
__________________________________________________________________________________________________
pool3_conv (Conv2D)             (None, 25, 25, 256)  131072      pool3_relu[0][0]                 
__________________________________________________________________________________________________
pool3_pool (AveragePooling2D)   (None, 12, 12, 256)  0           pool3_conv[0][0]                 
__________________________________________________________________________________________________
conv4_block1_0_bn (BatchNormali (None, 12, 12, 256)  1024        pool3_pool[0][0]                 
__________________________________________________________________________________________________
conv4_block1_0_relu (Activation (None, 12, 12, 256)  0           conv4_block1_0_bn[0][0]          
__________________________________________________________________________________________________
conv4_block1_1_conv (Conv2D)    (None, 12, 12, 128)  32768       conv4_block1_0_relu[0][0]        
__________________________________________________________________________________________________
conv4_block1_1_bn (BatchNormali (None, 12, 12, 128)  512         conv4_block1_1_conv[0][0]        
__________________________________________________________________________________________________
conv4_block1_1_relu (Activation (None, 12, 12, 128)  0           conv4_block1_1_bn[0][0]          
__________________________________________________________________________________________________
conv4_block1_2_conv (Conv2D)    (None, 12, 12, 32)   36864       conv4_block1_1_relu[0][0]        
__________________________________________________________________________________________________
conv4_block1_concat (Concatenat (None, 12, 12, 288)  0           pool3_pool[0][0]                 
                                                                 conv4_block1_2_conv[0][0]        
__________________________________________________________________________________________________
conv4_block2_0_bn (BatchNormali (None, 12, 12, 288)  1152        conv4_block1_concat[0][0]        
__________________________________________________________________________________________________
conv4_block2_0_relu (Activation (None, 12, 12, 288)  0           conv4_block2_0_bn[0][0]          
__________________________________________________________________________________________________
conv4_block2_1_conv (Conv2D)    (None, 12, 12, 128)  36864       conv4_block2_0_relu[0][0]        
__________________________________________________________________________________________________
conv4_block2_1_bn (BatchNormali (None, 12, 12, 128)  512         conv4_block2_1_conv[0][0]        
__________________________________________________________________________________________________
conv4_block2_1_relu (Activation (None, 12, 12, 128)  0           conv4_block2_1_bn[0][0]          
__________________________________________________________________________________________________
conv4_block2_2_conv (Conv2D)    (None, 12, 12, 32)   36864       conv4_block2_1_relu[0][0]        
__________________________________________________________________________________________________
conv4_block2_concat (Concatenat (None, 12, 12, 320)  0           conv4_block1_concat[0][0]        
                                                                 conv4_block2_2_conv[0][0]        
__________________________________________________________________________________________________
conv4_block3_0_bn (BatchNormali (None, 12, 12, 320)  1280        conv4_block2_concat[0][0]        
__________________________________________________________________________________________________
conv4_block3_0_relu (Activation (None, 12, 12, 320)  0           conv4_block3_0_bn[0][0]          
__________________________________________________________________________________________________
conv4_block3_1_conv (Conv2D)    (None, 12, 12, 128)  40960       conv4_block3_0_relu[0][0]        
__________________________________________________________________________________________________
conv4_block3_1_bn (BatchNormali (None, 12, 12, 128)  512         conv4_block3_1_conv[0][0]        
__________________________________________________________________________________________________
conv4_block3_1_relu (Activation (None, 12, 12, 128)  0           conv4_block3_1_bn[0][0]          
__________________________________________________________________________________________________
conv4_block3_2_conv (Conv2D)    (None, 12, 12, 32)   36864       conv4_block3_1_relu[0][0]        
__________________________________________________________________________________________________
conv4_block3_concat (Concatenat (None, 12, 12, 352)  0           conv4_block2_concat[0][0]        
                                                                 conv4_block3_2_conv[0][0]        
__________________________________________________________________________________________________
conv4_block4_0_bn (BatchNormali (None, 12, 12, 352)  1408        conv4_block3_concat[0][0]        
__________________________________________________________________________________________________
conv4_block4_0_relu (Activation (None, 12, 12, 352)  0           conv4_block4_0_bn[0][0]          
__________________________________________________________________________________________________
conv4_block4_1_conv (Conv2D)    (None, 12, 12, 128)  45056       conv4_block4_0_relu[0][0]        
__________________________________________________________________________________________________
conv4_block4_1_bn (BatchNormali (None, 12, 12, 128)  512         conv4_block4_1_conv[0][0]        
__________________________________________________________________________________________________
conv4_block4_1_relu (Activation (None, 12, 12, 128)  0           conv4_block4_1_bn[0][0]          
__________________________________________________________________________________________________
conv4_block4_2_conv (Conv2D)    (None, 12, 12, 32)   36864       conv4_block4_1_relu[0][0]        
__________________________________________________________________________________________________
conv4_block4_concat (Concatenat (None, 12, 12, 384)  0           conv4_block3_concat[0][0]        
                                                                 conv4_block4_2_conv[0][0]        
__________________________________________________________________________________________________
conv4_block5_0_bn (BatchNormali (None, 12, 12, 384)  1536        conv4_block4_concat[0][0]        
__________________________________________________________________________________________________
conv4_block5_0_relu (Activation (None, 12, 12, 384)  0           conv4_block5_0_bn[0][0]          
__________________________________________________________________________________________________
conv4_block5_1_conv (Conv2D)    (None, 12, 12, 128)  49152       conv4_block5_0_relu[0][0]        
__________________________________________________________________________________________________
conv4_block5_1_bn (BatchNormali (None, 12, 12, 128)  512         conv4_block5_1_conv[0][0]        
__________________________________________________________________________________________________
conv4_block5_1_relu (Activation (None, 12, 12, 128)  0           conv4_block5_1_bn[0][0]          
__________________________________________________________________________________________________
conv4_block5_2_conv (Conv2D)    (None, 12, 12, 32)   36864       conv4_block5_1_relu[0][0]        
__________________________________________________________________________________________________
conv4_block5_concat (Concatenat (None, 12, 12, 416)  0           conv4_block4_concat[0][0]        
                                                                 conv4_block5_2_conv[0][0]        
__________________________________________________________________________________________________
conv4_block6_0_bn (BatchNormali (None, 12, 12, 416)  1664        conv4_block5_concat[0][0]        
__________________________________________________________________________________________________
conv4_block6_0_relu (Activation (None, 12, 12, 416)  0           conv4_block6_0_bn[0][0]          
__________________________________________________________________________________________________
conv4_block6_1_conv (Conv2D)    (None, 12, 12, 128)  53248       conv4_block6_0_relu[0][0]        
__________________________________________________________________________________________________
conv4_block6_1_bn (BatchNormali (None, 12, 12, 128)  512         conv4_block6_1_conv[0][0]        
__________________________________________________________________________________________________
conv4_block6_1_relu (Activation (None, 12, 12, 128)  0           conv4_block6_1_bn[0][0]          
__________________________________________________________________________________________________
conv4_block6_2_conv (Conv2D)    (None, 12, 12, 32)   36864       conv4_block6_1_relu[0][0]        
__________________________________________________________________________________________________
conv4_block6_concat (Concatenat (None, 12, 12, 448)  0           conv4_block5_concat[0][0]        
                                                                 conv4_block6_2_conv[0][0]        
__________________________________________________________________________________________________
conv4_block7_0_bn (BatchNormali (None, 12, 12, 448)  1792        conv4_block6_concat[0][0]        
__________________________________________________________________________________________________
conv4_block7_0_relu (Activation (None, 12, 12, 448)  0           conv4_block7_0_bn[0][0]          
__________________________________________________________________________________________________
conv4_block7_1_conv (Conv2D)    (None, 12, 12, 128)  57344       conv4_block7_0_relu[0][0]        
__________________________________________________________________________________________________
conv4_block7_1_bn (BatchNormali (None, 12, 12, 128)  512         conv4_block7_1_conv[0][0]        
__________________________________________________________________________________________________
conv4_block7_1_relu (Activation (None, 12, 12, 128)  0           conv4_block7_1_bn[0][0]          
__________________________________________________________________________________________________
conv4_block7_2_conv (Conv2D)    (None, 12, 12, 32)   36864       conv4_block7_1_relu[0][0]        
__________________________________________________________________________________________________
conv4_block7_concat (Concatenat (None, 12, 12, 480)  0           conv4_block6_concat[0][0]        
                                                                 conv4_block7_2_conv[0][0]        
__________________________________________________________________________________________________
conv4_block8_0_bn (BatchNormali (None, 12, 12, 480)  1920        conv4_block7_concat[0][0]        
__________________________________________________________________________________________________
conv4_block8_0_relu (Activation (None, 12, 12, 480)  0           conv4_block8_0_bn[0][0]          
__________________________________________________________________________________________________
conv4_block8_1_conv (Conv2D)    (None, 12, 12, 128)  61440       conv4_block8_0_relu[0][0]        
__________________________________________________________________________________________________
conv4_block8_1_bn (BatchNormali (None, 12, 12, 128)  512         conv4_block8_1_conv[0][0]        
__________________________________________________________________________________________________
conv4_block8_1_relu (Activation (None, 12, 12, 128)  0           conv4_block8_1_bn[0][0]          
__________________________________________________________________________________________________
conv4_block8_2_conv (Conv2D)    (None, 12, 12, 32)   36864       conv4_block8_1_relu[0][0]        
__________________________________________________________________________________________________
conv4_block8_concat (Concatenat (None, 12, 12, 512)  0           conv4_block7_concat[0][0]        
                                                                 conv4_block8_2_conv[0][0]        
__________________________________________________________________________________________________
conv4_block9_0_bn (BatchNormali (None, 12, 12, 512)  2048        conv4_block8_concat[0][0]        
__________________________________________________________________________________________________
conv4_block9_0_relu (Activation (None, 12, 12, 512)  0           conv4_block9_0_bn[0][0]          
__________________________________________________________________________________________________
conv4_block9_1_conv (Conv2D)    (None, 12, 12, 128)  65536       conv4_block9_0_relu[0][0]        
__________________________________________________________________________________________________
conv4_block9_1_bn (BatchNormali (None, 12, 12, 128)  512         conv4_block9_1_conv[0][0]        
__________________________________________________________________________________________________
conv4_block9_1_relu (Activation (None, 12, 12, 128)  0           conv4_block9_1_bn[0][0]          
__________________________________________________________________________________________________
conv4_block9_2_conv (Conv2D)    (None, 12, 12, 32)   36864       conv4_block9_1_relu[0][0]        
__________________________________________________________________________________________________
conv4_block9_concat (Concatenat (None, 12, 12, 544)  0           conv4_block8_concat[0][0]        
                                                                 conv4_block9_2_conv[0][0]        
__________________________________________________________________________________________________
conv4_block10_0_bn (BatchNormal (None, 12, 12, 544)  2176        conv4_block9_concat[0][0]        
__________________________________________________________________________________________________
conv4_block10_0_relu (Activatio (None, 12, 12, 544)  0           conv4_block10_0_bn[0][0]         
__________________________________________________________________________________________________
conv4_block10_1_conv (Conv2D)   (None, 12, 12, 128)  69632       conv4_block10_0_relu[0][0]       
__________________________________________________________________________________________________
conv4_block10_1_bn (BatchNormal (None, 12, 12, 128)  512         conv4_block10_1_conv[0][0]       
__________________________________________________________________________________________________
conv4_block10_1_relu (Activatio (None, 12, 12, 128)  0           conv4_block10_1_bn[0][0]         
__________________________________________________________________________________________________
conv4_block10_2_conv (Conv2D)   (None, 12, 12, 32)   36864       conv4_block10_1_relu[0][0]       
__________________________________________________________________________________________________
conv4_block10_concat (Concatena (None, 12, 12, 576)  0           conv4_block9_concat[0][0]        
                                                                 conv4_block10_2_conv[0][0]       
__________________________________________________________________________________________________
conv4_block11_0_bn (BatchNormal (None, 12, 12, 576)  2304        conv4_block10_concat[0][0]       
__________________________________________________________________________________________________
conv4_block11_0_relu (Activatio (None, 12, 12, 576)  0           conv4_block11_0_bn[0][0]         
__________________________________________________________________________________________________
conv4_block11_1_conv (Conv2D)   (None, 12, 12, 128)  73728       conv4_block11_0_relu[0][0]       
__________________________________________________________________________________________________
conv4_block11_1_bn (BatchNormal (None, 12, 12, 128)  512         conv4_block11_1_conv[0][0]       
__________________________________________________________________________________________________
conv4_block11_1_relu (Activatio (None, 12, 12, 128)  0           conv4_block11_1_bn[0][0]         
__________________________________________________________________________________________________
conv4_block11_2_conv (Conv2D)   (None, 12, 12, 32)   36864       conv4_block11_1_relu[0][0]       
__________________________________________________________________________________________________
conv4_block11_concat (Concatena (None, 12, 12, 608)  0           conv4_block10_concat[0][0]       
                                                                 conv4_block11_2_conv[0][0]       
__________________________________________________________________________________________________
conv4_block12_0_bn (BatchNormal (None, 12, 12, 608)  2432        conv4_block11_concat[0][0]       
__________________________________________________________________________________________________
conv4_block12_0_relu (Activatio (None, 12, 12, 608)  0           conv4_block12_0_bn[0][0]         
__________________________________________________________________________________________________
conv4_block12_1_conv (Conv2D)   (None, 12, 12, 128)  77824       conv4_block12_0_relu[0][0]       
__________________________________________________________________________________________________
conv4_block12_1_bn (BatchNormal (None, 12, 12, 128)  512         conv4_block12_1_conv[0][0]       
__________________________________________________________________________________________________
conv4_block12_1_relu (Activatio (None, 12, 12, 128)  0           conv4_block12_1_bn[0][0]         
__________________________________________________________________________________________________
conv4_block12_2_conv (Conv2D)   (None, 12, 12, 32)   36864       conv4_block12_1_relu[0][0]       
__________________________________________________________________________________________________
conv4_block12_concat (Concatena (None, 12, 12, 640)  0           conv4_block11_concat[0][0]       
                                                                 conv4_block12_2_conv[0][0]       
__________________________________________________________________________________________________
conv4_block13_0_bn (BatchNormal (None, 12, 12, 640)  2560        conv4_block12_concat[0][0]       
__________________________________________________________________________________________________
conv4_block13_0_relu (Activatio (None, 12, 12, 640)  0           conv4_block13_0_bn[0][0]         
__________________________________________________________________________________________________
conv4_block13_1_conv (Conv2D)   (None, 12, 12, 128)  81920       conv4_block13_0_relu[0][0]       
__________________________________________________________________________________________________
conv4_block13_1_bn (BatchNormal (None, 12, 12, 128)  512         conv4_block13_1_conv[0][0]       
__________________________________________________________________________________________________
conv4_block13_1_relu (Activatio (None, 12, 12, 128)  0           conv4_block13_1_bn[0][0]         
__________________________________________________________________________________________________
conv4_block13_2_conv (Conv2D)   (None, 12, 12, 32)   36864       conv4_block13_1_relu[0][0]       
__________________________________________________________________________________________________
conv4_block13_concat (Concatena (None, 12, 12, 672)  0           conv4_block12_concat[0][0]       
                                                                 conv4_block13_2_conv[0][0]       
__________________________________________________________________________________________________
conv4_block14_0_bn (BatchNormal (None, 12, 12, 672)  2688        conv4_block13_concat[0][0]       
__________________________________________________________________________________________________
conv4_block14_0_relu (Activatio (None, 12, 12, 672)  0           conv4_block14_0_bn[0][0]         
__________________________________________________________________________________________________
conv4_block14_1_conv (Conv2D)   (None, 12, 12, 128)  86016       conv4_block14_0_relu[0][0]       
__________________________________________________________________________________________________
conv4_block14_1_bn (BatchNormal (None, 12, 12, 128)  512         conv4_block14_1_conv[0][0]       
__________________________________________________________________________________________________
conv4_block14_1_relu (Activatio (None, 12, 12, 128)  0           conv4_block14_1_bn[0][0]         
__________________________________________________________________________________________________
conv4_block14_2_conv (Conv2D)   (None, 12, 12, 32)   36864       conv4_block14_1_relu[0][0]       
__________________________________________________________________________________________________
conv4_block14_concat (Concatena (None, 12, 12, 704)  0           conv4_block13_concat[0][0]       
                                                                 conv4_block14_2_conv[0][0]       
__________________________________________________________________________________________________
conv4_block15_0_bn (BatchNormal (None, 12, 12, 704)  2816        conv4_block14_concat[0][0]       
__________________________________________________________________________________________________
conv4_block15_0_relu (Activatio (None, 12, 12, 704)  0           conv4_block15_0_bn[0][0]         
__________________________________________________________________________________________________
conv4_block15_1_conv (Conv2D)   (None, 12, 12, 128)  90112       conv4_block15_0_relu[0][0]       
__________________________________________________________________________________________________
conv4_block15_1_bn (BatchNormal (None, 12, 12, 128)  512         conv4_block15_1_conv[0][0]       
__________________________________________________________________________________________________
conv4_block15_1_relu (Activatio (None, 12, 12, 128)  0           conv4_block15_1_bn[0][0]         
__________________________________________________________________________________________________
conv4_block15_2_conv (Conv2D)   (None, 12, 12, 32)   36864       conv4_block15_1_relu[0][0]       
__________________________________________________________________________________________________
conv4_block15_concat (Concatena (None, 12, 12, 736)  0           conv4_block14_concat[0][0]       
                                                                 conv4_block15_2_conv[0][0]       
__________________________________________________________________________________________________
conv4_block16_0_bn (BatchNormal (None, 12, 12, 736)  2944        conv4_block15_concat[0][0]       
__________________________________________________________________________________________________
conv4_block16_0_relu (Activatio (None, 12, 12, 736)  0           conv4_block16_0_bn[0][0]         
__________________________________________________________________________________________________
conv4_block16_1_conv (Conv2D)   (None, 12, 12, 128)  94208       conv4_block16_0_relu[0][0]       
__________________________________________________________________________________________________
conv4_block16_1_bn (BatchNormal (None, 12, 12, 128)  512         conv4_block16_1_conv[0][0]       
__________________________________________________________________________________________________
conv4_block16_1_relu (Activatio (None, 12, 12, 128)  0           conv4_block16_1_bn[0][0]         
__________________________________________________________________________________________________
conv4_block16_2_conv (Conv2D)   (None, 12, 12, 32)   36864       conv4_block16_1_relu[0][0]       
__________________________________________________________________________________________________
conv4_block16_concat (Concatena (None, 12, 12, 768)  0           conv4_block15_concat[0][0]       
                                                                 conv4_block16_2_conv[0][0]       
__________________________________________________________________________________________________
conv4_block17_0_bn (BatchNormal (None, 12, 12, 768)  3072        conv4_block16_concat[0][0]       
__________________________________________________________________________________________________
conv4_block17_0_relu (Activatio (None, 12, 12, 768)  0           conv4_block17_0_bn[0][0]         
__________________________________________________________________________________________________
conv4_block17_1_conv (Conv2D)   (None, 12, 12, 128)  98304       conv4_block17_0_relu[0][0]       
__________________________________________________________________________________________________
conv4_block17_1_bn (BatchNormal (None, 12, 12, 128)  512         conv4_block17_1_conv[0][0]       
__________________________________________________________________________________________________
conv4_block17_1_relu (Activatio (None, 12, 12, 128)  0           conv4_block17_1_bn[0][0]         
__________________________________________________________________________________________________
conv4_block17_2_conv (Conv2D)   (None, 12, 12, 32)   36864       conv4_block17_1_relu[0][0]       
__________________________________________________________________________________________________
conv4_block17_concat (Concatena (None, 12, 12, 800)  0           conv4_block16_concat[0][0]       
                                                                 conv4_block17_2_conv[0][0]       
__________________________________________________________________________________________________
conv4_block18_0_bn (BatchNormal (None, 12, 12, 800)  3200        conv4_block17_concat[0][0]       
__________________________________________________________________________________________________
conv4_block18_0_relu (Activatio (None, 12, 12, 800)  0           conv4_block18_0_bn[0][0]         
__________________________________________________________________________________________________
conv4_block18_1_conv (Conv2D)   (None, 12, 12, 128)  102400      conv4_block18_0_relu[0][0]       
__________________________________________________________________________________________________
conv4_block18_1_bn (BatchNormal (None, 12, 12, 128)  512         conv4_block18_1_conv[0][0]       
__________________________________________________________________________________________________
conv4_block18_1_relu (Activatio (None, 12, 12, 128)  0           conv4_block18_1_bn[0][0]         
__________________________________________________________________________________________________
conv4_block18_2_conv (Conv2D)   (None, 12, 12, 32)   36864       conv4_block18_1_relu[0][0]       
__________________________________________________________________________________________________
conv4_block18_concat (Concatena (None, 12, 12, 832)  0           conv4_block17_concat[0][0]       
                                                                 conv4_block18_2_conv[0][0]       
__________________________________________________________________________________________________
conv4_block19_0_bn (BatchNormal (None, 12, 12, 832)  3328        conv4_block18_concat[0][0]       
__________________________________________________________________________________________________
conv4_block19_0_relu (Activatio (None, 12, 12, 832)  0           conv4_block19_0_bn[0][0]         
__________________________________________________________________________________________________
conv4_block19_1_conv (Conv2D)   (None, 12, 12, 128)  106496      conv4_block19_0_relu[0][0]       
__________________________________________________________________________________________________
conv4_block19_1_bn (BatchNormal (None, 12, 12, 128)  512         conv4_block19_1_conv[0][0]       
__________________________________________________________________________________________________
conv4_block19_1_relu (Activatio (None, 12, 12, 128)  0           conv4_block19_1_bn[0][0]         
__________________________________________________________________________________________________
conv4_block19_2_conv (Conv2D)   (None, 12, 12, 32)   36864       conv4_block19_1_relu[0][0]       
__________________________________________________________________________________________________
conv4_block19_concat (Concatena (None, 12, 12, 864)  0           conv4_block18_concat[0][0]       
                                                                 conv4_block19_2_conv[0][0]       
__________________________________________________________________________________________________
conv4_block20_0_bn (BatchNormal (None, 12, 12, 864)  3456        conv4_block19_concat[0][0]       
__________________________________________________________________________________________________
conv4_block20_0_relu (Activatio (None, 12, 12, 864)  0           conv4_block20_0_bn[0][0]         
__________________________________________________________________________________________________
conv4_block20_1_conv (Conv2D)   (None, 12, 12, 128)  110592      conv4_block20_0_relu[0][0]       
__________________________________________________________________________________________________
conv4_block20_1_bn (BatchNormal (None, 12, 12, 128)  512         conv4_block20_1_conv[0][0]       
__________________________________________________________________________________________________
conv4_block20_1_relu (Activatio (None, 12, 12, 128)  0           conv4_block20_1_bn[0][0]         
__________________________________________________________________________________________________
conv4_block20_2_conv (Conv2D)   (None, 12, 12, 32)   36864       conv4_block20_1_relu[0][0]       
__________________________________________________________________________________________________
conv4_block20_concat (Concatena (None, 12, 12, 896)  0           conv4_block19_concat[0][0]       
                                                                 conv4_block20_2_conv[0][0]       
__________________________________________________________________________________________________
conv4_block21_0_bn (BatchNormal (None, 12, 12, 896)  3584        conv4_block20_concat[0][0]       
__________________________________________________________________________________________________
conv4_block21_0_relu (Activatio (None, 12, 12, 896)  0           conv4_block21_0_bn[0][0]         
__________________________________________________________________________________________________
conv4_block21_1_conv (Conv2D)   (None, 12, 12, 128)  114688      conv4_block21_0_relu[0][0]       
__________________________________________________________________________________________________
conv4_block21_1_bn (BatchNormal (None, 12, 12, 128)  512         conv4_block21_1_conv[0][0]       
__________________________________________________________________________________________________
conv4_block21_1_relu (Activatio (None, 12, 12, 128)  0           conv4_block21_1_bn[0][0]         
__________________________________________________________________________________________________
conv4_block21_2_conv (Conv2D)   (None, 12, 12, 32)   36864       conv4_block21_1_relu[0][0]       
__________________________________________________________________________________________________
conv4_block21_concat (Concatena (None, 12, 12, 928)  0           conv4_block20_concat[0][0]       
                                                                 conv4_block21_2_conv[0][0]       
__________________________________________________________________________________________________
conv4_block22_0_bn (BatchNormal (None, 12, 12, 928)  3712        conv4_block21_concat[0][0]       
__________________________________________________________________________________________________
conv4_block22_0_relu (Activatio (None, 12, 12, 928)  0           conv4_block22_0_bn[0][0]         
__________________________________________________________________________________________________
conv4_block22_1_conv (Conv2D)   (None, 12, 12, 128)  118784      conv4_block22_0_relu[0][0]       
__________________________________________________________________________________________________
conv4_block22_1_bn (BatchNormal (None, 12, 12, 128)  512         conv4_block22_1_conv[0][0]       
__________________________________________________________________________________________________
conv4_block22_1_relu (Activatio (None, 12, 12, 128)  0           conv4_block22_1_bn[0][0]         
__________________________________________________________________________________________________
conv4_block22_2_conv (Conv2D)   (None, 12, 12, 32)   36864       conv4_block22_1_relu[0][0]       
__________________________________________________________________________________________________
conv4_block22_concat (Concatena (None, 12, 12, 960)  0           conv4_block21_concat[0][0]       
                                                                 conv4_block22_2_conv[0][0]       
__________________________________________________________________________________________________
conv4_block23_0_bn (BatchNormal (None, 12, 12, 960)  3840        conv4_block22_concat[0][0]       
__________________________________________________________________________________________________
conv4_block23_0_relu (Activatio (None, 12, 12, 960)  0           conv4_block23_0_bn[0][0]         
__________________________________________________________________________________________________
conv4_block23_1_conv (Conv2D)   (None, 12, 12, 128)  122880      conv4_block23_0_relu[0][0]       
__________________________________________________________________________________________________
conv4_block23_1_bn (BatchNormal (None, 12, 12, 128)  512         conv4_block23_1_conv[0][0]       
__________________________________________________________________________________________________
conv4_block23_1_relu (Activatio (None, 12, 12, 128)  0           conv4_block23_1_bn[0][0]         
__________________________________________________________________________________________________
conv4_block23_2_conv (Conv2D)   (None, 12, 12, 32)   36864       conv4_block23_1_relu[0][0]       
__________________________________________________________________________________________________
conv4_block23_concat (Concatena (None, 12, 12, 992)  0           conv4_block22_concat[0][0]       
                                                                 conv4_block23_2_conv[0][0]       
__________________________________________________________________________________________________
conv4_block24_0_bn (BatchNormal (None, 12, 12, 992)  3968        conv4_block23_concat[0][0]       
__________________________________________________________________________________________________
conv4_block24_0_relu (Activatio (None, 12, 12, 992)  0           conv4_block24_0_bn[0][0]         
__________________________________________________________________________________________________
conv4_block24_1_conv (Conv2D)   (None, 12, 12, 128)  126976      conv4_block24_0_relu[0][0]       
__________________________________________________________________________________________________
conv4_block24_1_bn (BatchNormal (None, 12, 12, 128)  512         conv4_block24_1_conv[0][0]       
__________________________________________________________________________________________________
conv4_block24_1_relu (Activatio (None, 12, 12, 128)  0           conv4_block24_1_bn[0][0]         
__________________________________________________________________________________________________
conv4_block24_2_conv (Conv2D)   (None, 12, 12, 32)   36864       conv4_block24_1_relu[0][0]       
__________________________________________________________________________________________________
conv4_block24_concat (Concatena (None, 12, 12, 1024) 0           conv4_block23_concat[0][0]       
                                                                 conv4_block24_2_conv[0][0]       
__________________________________________________________________________________________________
pool4_bn (BatchNormalization)   (None, 12, 12, 1024) 4096        conv4_block24_concat[0][0]       
__________________________________________________________________________________________________
pool4_relu (Activation)         (None, 12, 12, 1024) 0           pool4_bn[0][0]                   
__________________________________________________________________________________________________
pool4_conv (Conv2D)             (None, 12, 12, 512)  524288      pool4_relu[0][0]                 
__________________________________________________________________________________________________
pool4_pool (AveragePooling2D)   (None, 6, 6, 512)    0           pool4_conv[0][0]                 
__________________________________________________________________________________________________
conv5_block1_0_bn (BatchNormali (None, 6, 6, 512)    2048        pool4_pool[0][0]                 
__________________________________________________________________________________________________
conv5_block1_0_relu (Activation (None, 6, 6, 512)    0           conv5_block1_0_bn[0][0]          
__________________________________________________________________________________________________
conv5_block1_1_conv (Conv2D)    (None, 6, 6, 128)    65536       conv5_block1_0_relu[0][0]        
__________________________________________________________________________________________________
conv5_block1_1_bn (BatchNormali (None, 6, 6, 128)    512         conv5_block1_1_conv[0][0]        
__________________________________________________________________________________________________
conv5_block1_1_relu (Activation (None, 6, 6, 128)    0           conv5_block1_1_bn[0][0]          
__________________________________________________________________________________________________
conv5_block1_2_conv (Conv2D)    (None, 6, 6, 32)     36864       conv5_block1_1_relu[0][0]        
__________________________________________________________________________________________________
conv5_block1_concat (Concatenat (None, 6, 6, 544)    0           pool4_pool[0][0]                 
                                                                 conv5_block1_2_conv[0][0]        
__________________________________________________________________________________________________
conv5_block2_0_bn (BatchNormali (None, 6, 6, 544)    2176        conv5_block1_concat[0][0]        
__________________________________________________________________________________________________
conv5_block2_0_relu (Activation (None, 6, 6, 544)    0           conv5_block2_0_bn[0][0]          
__________________________________________________________________________________________________
conv5_block2_1_conv (Conv2D)    (None, 6, 6, 128)    69632       conv5_block2_0_relu[0][0]        
__________________________________________________________________________________________________
conv5_block2_1_bn (BatchNormali (None, 6, 6, 128)    512         conv5_block2_1_conv[0][0]        
__________________________________________________________________________________________________
conv5_block2_1_relu (Activation (None, 6, 6, 128)    0           conv5_block2_1_bn[0][0]          
__________________________________________________________________________________________________
conv5_block2_2_conv (Conv2D)    (None, 6, 6, 32)     36864       conv5_block2_1_relu[0][0]        
__________________________________________________________________________________________________
conv5_block2_concat (Concatenat (None, 6, 6, 576)    0           conv5_block1_concat[0][0]        
                                                                 conv5_block2_2_conv[0][0]        
__________________________________________________________________________________________________
conv5_block3_0_bn (BatchNormali (None, 6, 6, 576)    2304        conv5_block2_concat[0][0]        
__________________________________________________________________________________________________
conv5_block3_0_relu (Activation (None, 6, 6, 576)    0           conv5_block3_0_bn[0][0]          
__________________________________________________________________________________________________
conv5_block3_1_conv (Conv2D)    (None, 6, 6, 128)    73728       conv5_block3_0_relu[0][0]        
__________________________________________________________________________________________________
conv5_block3_1_bn (BatchNormali (None, 6, 6, 128)    512         conv5_block3_1_conv[0][0]        
__________________________________________________________________________________________________
conv5_block3_1_relu (Activation (None, 6, 6, 128)    0           conv5_block3_1_bn[0][0]          
__________________________________________________________________________________________________
conv5_block3_2_conv (Conv2D)    (None, 6, 6, 32)     36864       conv5_block3_1_relu[0][0]        
__________________________________________________________________________________________________
conv5_block3_concat (Concatenat (None, 6, 6, 608)    0           conv5_block2_concat[0][0]        
                                                                 conv5_block3_2_conv[0][0]        
__________________________________________________________________________________________________
conv5_block4_0_bn (BatchNormali (None, 6, 6, 608)    2432        conv5_block3_concat[0][0]        
__________________________________________________________________________________________________
conv5_block4_0_relu (Activation (None, 6, 6, 608)    0           conv5_block4_0_bn[0][0]          
__________________________________________________________________________________________________
conv5_block4_1_conv (Conv2D)    (None, 6, 6, 128)    77824       conv5_block4_0_relu[0][0]        
__________________________________________________________________________________________________
conv5_block4_1_bn (BatchNormali (None, 6, 6, 128)    512         conv5_block4_1_conv[0][0]        
__________________________________________________________________________________________________
conv5_block4_1_relu (Activation (None, 6, 6, 128)    0           conv5_block4_1_bn[0][0]          
__________________________________________________________________________________________________
conv5_block4_2_conv (Conv2D)    (None, 6, 6, 32)     36864       conv5_block4_1_relu[0][0]        
__________________________________________________________________________________________________
conv5_block4_concat (Concatenat (None, 6, 6, 640)    0           conv5_block3_concat[0][0]        
                                                                 conv5_block4_2_conv[0][0]        
__________________________________________________________________________________________________
conv5_block5_0_bn (BatchNormali (None, 6, 6, 640)    2560        conv5_block4_concat[0][0]        
__________________________________________________________________________________________________
conv5_block5_0_relu (Activation (None, 6, 6, 640)    0           conv5_block5_0_bn[0][0]          
__________________________________________________________________________________________________
conv5_block5_1_conv (Conv2D)    (None, 6, 6, 128)    81920       conv5_block5_0_relu[0][0]        
__________________________________________________________________________________________________
conv5_block5_1_bn (BatchNormali (None, 6, 6, 128)    512         conv5_block5_1_conv[0][0]        
__________________________________________________________________________________________________
conv5_block5_1_relu (Activation (None, 6, 6, 128)    0           conv5_block5_1_bn[0][0]          
__________________________________________________________________________________________________
conv5_block5_2_conv (Conv2D)    (None, 6, 6, 32)     36864       conv5_block5_1_relu[0][0]        
__________________________________________________________________________________________________
conv5_block5_concat (Concatenat (None, 6, 6, 672)    0           conv5_block4_concat[0][0]        
                                                                 conv5_block5_2_conv[0][0]        
__________________________________________________________________________________________________
conv5_block6_0_bn (BatchNormali (None, 6, 6, 672)    2688        conv5_block5_concat[0][0]        
__________________________________________________________________________________________________
conv5_block6_0_relu (Activation (None, 6, 6, 672)    0           conv5_block6_0_bn[0][0]          
__________________________________________________________________________________________________
conv5_block6_1_conv (Conv2D)    (None, 6, 6, 128)    86016       conv5_block6_0_relu[0][0]        
__________________________________________________________________________________________________
conv5_block6_1_bn (BatchNormali (None, 6, 6, 128)    512         conv5_block6_1_conv[0][0]        
__________________________________________________________________________________________________
conv5_block6_1_relu (Activation (None, 6, 6, 128)    0           conv5_block6_1_bn[0][0]          
__________________________________________________________________________________________________
conv5_block6_2_conv (Conv2D)    (None, 6, 6, 32)     36864       conv5_block6_1_relu[0][0]        
__________________________________________________________________________________________________
conv5_block6_concat (Concatenat (None, 6, 6, 704)    0           conv5_block5_concat[0][0]        
                                                                 conv5_block6_2_conv[0][0]        
__________________________________________________________________________________________________
conv5_block7_0_bn (BatchNormali (None, 6, 6, 704)    2816        conv5_block6_concat[0][0]        
__________________________________________________________________________________________________
conv5_block7_0_relu (Activation (None, 6, 6, 704)    0           conv5_block7_0_bn[0][0]          
__________________________________________________________________________________________________
conv5_block7_1_conv (Conv2D)    (None, 6, 6, 128)    90112       conv5_block7_0_relu[0][0]        
__________________________________________________________________________________________________
conv5_block7_1_bn (BatchNormali (None, 6, 6, 128)    512         conv5_block7_1_conv[0][0]        
__________________________________________________________________________________________________
conv5_block7_1_relu (Activation (None, 6, 6, 128)    0           conv5_block7_1_bn[0][0]          
__________________________________________________________________________________________________
conv5_block7_2_conv (Conv2D)    (None, 6, 6, 32)     36864       conv5_block7_1_relu[0][0]        
__________________________________________________________________________________________________
conv5_block7_concat (Concatenat (None, 6, 6, 736)    0           conv5_block6_concat[0][0]        
                                                                 conv5_block7_2_conv[0][0]        
__________________________________________________________________________________________________
conv5_block8_0_bn (BatchNormali (None, 6, 6, 736)    2944        conv5_block7_concat[0][0]        
__________________________________________________________________________________________________
conv5_block8_0_relu (Activation (None, 6, 6, 736)    0           conv5_block8_0_bn[0][0]          
__________________________________________________________________________________________________
conv5_block8_1_conv (Conv2D)    (None, 6, 6, 128)    94208       conv5_block8_0_relu[0][0]        
__________________________________________________________________________________________________
conv5_block8_1_bn (BatchNormali (None, 6, 6, 128)    512         conv5_block8_1_conv[0][0]        
__________________________________________________________________________________________________
conv5_block8_1_relu (Activation (None, 6, 6, 128)    0           conv5_block8_1_bn[0][0]          
__________________________________________________________________________________________________
conv5_block8_2_conv (Conv2D)    (None, 6, 6, 32)     36864       conv5_block8_1_relu[0][0]        
__________________________________________________________________________________________________
conv5_block8_concat (Concatenat (None, 6, 6, 768)    0           conv5_block7_concat[0][0]        
                                                                 conv5_block8_2_conv[0][0]        
__________________________________________________________________________________________________
conv5_block9_0_bn (BatchNormali (None, 6, 6, 768)    3072        conv5_block8_concat[0][0]        
__________________________________________________________________________________________________
conv5_block9_0_relu (Activation (None, 6, 6, 768)    0           conv5_block9_0_bn[0][0]          
__________________________________________________________________________________________________
conv5_block9_1_conv (Conv2D)    (None, 6, 6, 128)    98304       conv5_block9_0_relu[0][0]        
__________________________________________________________________________________________________
conv5_block9_1_bn (BatchNormali (None, 6, 6, 128)    512         conv5_block9_1_conv[0][0]        
__________________________________________________________________________________________________
conv5_block9_1_relu (Activation (None, 6, 6, 128)    0           conv5_block9_1_bn[0][0]          
__________________________________________________________________________________________________
conv5_block9_2_conv (Conv2D)    (None, 6, 6, 32)     36864       conv5_block9_1_relu[0][0]        
__________________________________________________________________________________________________
conv5_block9_concat (Concatenat (None, 6, 6, 800)    0           conv5_block8_concat[0][0]        
                                                                 conv5_block9_2_conv[0][0]        
__________________________________________________________________________________________________
conv5_block10_0_bn (BatchNormal (None, 6, 6, 800)    3200        conv5_block9_concat[0][0]        
__________________________________________________________________________________________________
conv5_block10_0_relu (Activatio (None, 6, 6, 800)    0           conv5_block10_0_bn[0][0]         
__________________________________________________________________________________________________
conv5_block10_1_conv (Conv2D)   (None, 6, 6, 128)    102400      conv5_block10_0_relu[0][0]       
__________________________________________________________________________________________________
conv5_block10_1_bn (BatchNormal (None, 6, 6, 128)    512         conv5_block10_1_conv[0][0]       
__________________________________________________________________________________________________
conv5_block10_1_relu (Activatio (None, 6, 6, 128)    0           conv5_block10_1_bn[0][0]         
__________________________________________________________________________________________________
conv5_block10_2_conv (Conv2D)   (None, 6, 6, 32)     36864       conv5_block10_1_relu[0][0]       
__________________________________________________________________________________________________
conv5_block10_concat (Concatena (None, 6, 6, 832)    0           conv5_block9_concat[0][0]        
                                                                 conv5_block10_2_conv[0][0]       
__________________________________________________________________________________________________
conv5_block11_0_bn (BatchNormal (None, 6, 6, 832)    3328        conv5_block10_concat[0][0]       
__________________________________________________________________________________________________
conv5_block11_0_relu (Activatio (None, 6, 6, 832)    0           conv5_block11_0_bn[0][0]         
__________________________________________________________________________________________________
conv5_block11_1_conv (Conv2D)   (None, 6, 6, 128)    106496      conv5_block11_0_relu[0][0]       
__________________________________________________________________________________________________
conv5_block11_1_bn (BatchNormal (None, 6, 6, 128)    512         conv5_block11_1_conv[0][0]       
__________________________________________________________________________________________________
conv5_block11_1_relu (Activatio (None, 6, 6, 128)    0           conv5_block11_1_bn[0][0]         
__________________________________________________________________________________________________
conv5_block11_2_conv (Conv2D)   (None, 6, 6, 32)     36864       conv5_block11_1_relu[0][0]       
__________________________________________________________________________________________________
conv5_block11_concat (Concatena (None, 6, 6, 864)    0           conv5_block10_concat[0][0]       
                                                                 conv5_block11_2_conv[0][0]       
__________________________________________________________________________________________________
conv5_block12_0_bn (BatchNormal (None, 6, 6, 864)    3456        conv5_block11_concat[0][0]       
__________________________________________________________________________________________________
conv5_block12_0_relu (Activatio (None, 6, 6, 864)    0           conv5_block12_0_bn[0][0]         
__________________________________________________________________________________________________
conv5_block12_1_conv (Conv2D)   (None, 6, 6, 128)    110592      conv5_block12_0_relu[0][0]       
__________________________________________________________________________________________________
conv5_block12_1_bn (BatchNormal (None, 6, 6, 128)    512         conv5_block12_1_conv[0][0]       
__________________________________________________________________________________________________
conv5_block12_1_relu (Activatio (None, 6, 6, 128)    0           conv5_block12_1_bn[0][0]         
__________________________________________________________________________________________________
conv5_block12_2_conv (Conv2D)   (None, 6, 6, 32)     36864       conv5_block12_1_relu[0][0]       
__________________________________________________________________________________________________
conv5_block12_concat (Concatena (None, 6, 6, 896)    0           conv5_block11_concat[0][0]       
                                                                 conv5_block12_2_conv[0][0]       
__________________________________________________________________________________________________
conv5_block13_0_bn (BatchNormal (None, 6, 6, 896)    3584        conv5_block12_concat[0][0]       
__________________________________________________________________________________________________
conv5_block13_0_relu (Activatio (None, 6, 6, 896)    0           conv5_block13_0_bn[0][0]         
__________________________________________________________________________________________________
conv5_block13_1_conv (Conv2D)   (None, 6, 6, 128)    114688      conv5_block13_0_relu[0][0]       
__________________________________________________________________________________________________
conv5_block13_1_bn (BatchNormal (None, 6, 6, 128)    512         conv5_block13_1_conv[0][0]       
__________________________________________________________________________________________________
conv5_block13_1_relu (Activatio (None, 6, 6, 128)    0           conv5_block13_1_bn[0][0]         
__________________________________________________________________________________________________
conv5_block13_2_conv (Conv2D)   (None, 6, 6, 32)     36864       conv5_block13_1_relu[0][0]       
__________________________________________________________________________________________________
conv5_block13_concat (Concatena (None, 6, 6, 928)    0           conv5_block12_concat[0][0]       
                                                                 conv5_block13_2_conv[0][0]       
__________________________________________________________________________________________________
conv5_block14_0_bn (BatchNormal (None, 6, 6, 928)    3712        conv5_block13_concat[0][0]       
__________________________________________________________________________________________________
conv5_block14_0_relu (Activatio (None, 6, 6, 928)    0           conv5_block14_0_bn[0][0]         
__________________________________________________________________________________________________
conv5_block14_1_conv (Conv2D)   (None, 6, 6, 128)    118784      conv5_block14_0_relu[0][0]       
__________________________________________________________________________________________________
conv5_block14_1_bn (BatchNormal (None, 6, 6, 128)    512         conv5_block14_1_conv[0][0]       
__________________________________________________________________________________________________
conv5_block14_1_relu (Activatio (None, 6, 6, 128)    0           conv5_block14_1_bn[0][0]         
__________________________________________________________________________________________________
conv5_block14_2_conv (Conv2D)   (None, 6, 6, 32)     36864       conv5_block14_1_relu[0][0]       
__________________________________________________________________________________________________
conv5_block14_concat (Concatena (None, 6, 6, 960)    0           conv5_block13_concat[0][0]       
                                                                 conv5_block14_2_conv[0][0]       
__________________________________________________________________________________________________
conv5_block15_0_bn (BatchNormal (None, 6, 6, 960)    3840        conv5_block14_concat[0][0]       
__________________________________________________________________________________________________
conv5_block15_0_relu (Activatio (None, 6, 6, 960)    0           conv5_block15_0_bn[0][0]         
__________________________________________________________________________________________________
conv5_block15_1_conv (Conv2D)   (None, 6, 6, 128)    122880      conv5_block15_0_relu[0][0]       
__________________________________________________________________________________________________
conv5_block15_1_bn (BatchNormal (None, 6, 6, 128)    512         conv5_block15_1_conv[0][0]       
__________________________________________________________________________________________________
conv5_block15_1_relu (Activatio (None, 6, 6, 128)    0           conv5_block15_1_bn[0][0]         
__________________________________________________________________________________________________
conv5_block15_2_conv (Conv2D)   (None, 6, 6, 32)     36864       conv5_block15_1_relu[0][0]       
__________________________________________________________________________________________________
conv5_block15_concat (Concatena (None, 6, 6, 992)    0           conv5_block14_concat[0][0]       
                                                                 conv5_block15_2_conv[0][0]       
__________________________________________________________________________________________________
conv5_block16_0_bn (BatchNormal (None, 6, 6, 992)    3968        conv5_block15_concat[0][0]       
__________________________________________________________________________________________________
conv5_block16_0_relu (Activatio (None, 6, 6, 992)    0           conv5_block16_0_bn[0][0]         
__________________________________________________________________________________________________
conv5_block16_1_conv (Conv2D)   (None, 6, 6, 128)    126976      conv5_block16_0_relu[0][0]       
__________________________________________________________________________________________________
conv5_block16_1_bn (BatchNormal (None, 6, 6, 128)    512         conv5_block16_1_conv[0][0]       
__________________________________________________________________________________________________
conv5_block16_1_relu (Activatio (None, 6, 6, 128)    0           conv5_block16_1_bn[0][0]         
__________________________________________________________________________________________________
conv5_block16_2_conv (Conv2D)   (None, 6, 6, 32)     36864       conv5_block16_1_relu[0][0]       
__________________________________________________________________________________________________
conv5_block16_concat (Concatena (None, 6, 6, 1024)   0           conv5_block15_concat[0][0]       
                                                                 conv5_block16_2_conv[0][0]       
__________________________________________________________________________________________________
bn (BatchNormalization)         (None, 6, 6, 1024)   4096        conv5_block16_concat[0][0]       
__________________________________________________________________________________________________
relu (Activation)               (None, 6, 6, 1024)   0           bn[0][0]                         
__________________________________________________________________________________________________
flatten_4 (Flatten)             (None, 36864)        0           relu[0][0]                       
__________________________________________________________________________________________________
dense_8 (Dense)                 (None, 128)          4718720     flatten_4[0][0]                  
__________________________________________________________________________________________________
dense_9 (Dense)                 (None, 1)            129         dense_8[0][0]                    
==================================================================================================
Total params: 11,756,353
Trainable params: 4,718,849
Non-trainable params: 7,037,504
__________________________________________________________________________________________________
None
Found 145 images belonging to 2 classes.
Found 36 images belonging to 2 classes.
…
10/10 [==============================] - 24s 2s/step - loss: 0.0029 - accuracy: 1.0000 - val_loss: 0.0331 - val_accuracy: 1.0000
> 97.826
Model: "functional_11"
_________________________________________________________________
Layer (type)                 Output Shape              Param #   
=================================================================
input_5 (InputLayer)         [(None, 200, 200, 3)]     0         
_________________________________________________________________
conv1_pad (ZeroPadding2D)    (None, 201, 201, 3)       0         
_________________________________________________________________
conv1 (Conv2D)               (None, 100, 100, 32)      864       
_________________________________________________________________
conv1_bn (BatchNormalization (None, 100, 100, 32)      128       
_________________________________________________________________
conv1_relu (ReLU)            (None, 100, 100, 32)      0         
_________________________________________________________________
conv_dw_1 (DepthwiseConv2D)  (None, 100, 100, 32)      288       
_________________________________________________________________
conv_dw_1_bn (BatchNormaliza (None, 100, 100, 32)      128       
_________________________________________________________________
conv_dw_1_relu (ReLU)        (None, 100, 100, 32)      0         
_________________________________________________________________
conv_pw_1 (Conv2D)           (None, 100, 100, 64)      2048      
_________________________________________________________________
conv_pw_1_bn (BatchNormaliza (None, 100, 100, 64)      256       
_________________________________________________________________
conv_pw_1_relu (ReLU)        (None, 100, 100, 64)      0         
_________________________________________________________________
conv_pad_2 (ZeroPadding2D)   (None, 101, 101, 64)      0         
_________________________________________________________________
conv_dw_2 (DepthwiseConv2D)  (None, 50, 50, 64)        576       
_________________________________________________________________
conv_dw_2_bn (BatchNormaliza (None, 50, 50, 64)        256       
_________________________________________________________________
conv_dw_2_relu (ReLU)        (None, 50, 50, 64)        0         
_________________________________________________________________
conv_pw_2 (Conv2D)           (None, 50, 50, 128)       8192      
_________________________________________________________________
conv_pw_2_bn (BatchNormaliza (None, 50, 50, 128)       512       
_________________________________________________________________
conv_pw_2_relu (ReLU)        (None, 50, 50, 128)       0         
_________________________________________________________________
conv_dw_3 (DepthwiseConv2D)  (None, 50, 50, 128)       1152      
_________________________________________________________________
conv_dw_3_bn (BatchNormaliza (None, 50, 50, 128)       512       
_________________________________________________________________
conv_dw_3_relu (ReLU)        (None, 50, 50, 128)       0         
_________________________________________________________________
conv_pw_3 (Conv2D)           (None, 50, 50, 128)       16384     
_________________________________________________________________
conv_pw_3_bn (BatchNormaliza (None, 50, 50, 128)       512       
_________________________________________________________________
conv_pw_3_relu (ReLU)        (None, 50, 50, 128)       0         
_________________________________________________________________
conv_pad_4 (ZeroPadding2D)   (None, 51, 51, 128)       0         
_________________________________________________________________
conv_dw_4 (DepthwiseConv2D)  (None, 25, 25, 128)       1152      
_________________________________________________________________
conv_dw_4_bn (BatchNormaliza (None, 25, 25, 128)       512       
_________________________________________________________________
conv_dw_4_relu (ReLU)        (None, 25, 25, 128)       0         
_________________________________________________________________
conv_pw_4 (Conv2D)           (None, 25, 25, 256)       32768     
_________________________________________________________________
conv_pw_4_bn (BatchNormaliza (None, 25, 25, 256)       1024      
_________________________________________________________________
conv_pw_4_relu (ReLU)        (None, 25, 25, 256)       0         
_________________________________________________________________
conv_dw_5 (DepthwiseConv2D)  (None, 25, 25, 256)       2304      
_________________________________________________________________
conv_dw_5_bn (BatchNormaliza (None, 25, 25, 256)       1024      
_________________________________________________________________
conv_dw_5_relu (ReLU)        (None, 25, 25, 256)       0         
_________________________________________________________________
conv_pw_5 (Conv2D)           (None, 25, 25, 256)       65536     
_________________________________________________________________
conv_pw_5_bn (BatchNormaliza (None, 25, 25, 256)       1024      
_________________________________________________________________
conv_pw_5_relu (ReLU)        (None, 25, 25, 256)       0         
_________________________________________________________________
conv_pad_6 (ZeroPadding2D)   (None, 26, 26, 256)       0         
_________________________________________________________________
conv_dw_6 (DepthwiseConv2D)  (None, 12, 12, 256)       2304      
_________________________________________________________________
conv_dw_6_bn (BatchNormaliza (None, 12, 12, 256)       1024      
_________________________________________________________________
conv_dw_6_relu (ReLU)        (None, 12, 12, 256)       0         
_________________________________________________________________
conv_pw_6 (Conv2D)           (None, 12, 12, 512)       131072    
_________________________________________________________________
conv_pw_6_bn (BatchNormaliza (None, 12, 12, 512)       2048      
_________________________________________________________________
conv_pw_6_relu (ReLU)        (None, 12, 12, 512)       0         
_________________________________________________________________
conv_dw_7 (DepthwiseConv2D)  (None, 12, 12, 512)       4608      
_________________________________________________________________
conv_dw_7_bn (BatchNormaliza (None, 12, 12, 512)       2048      
_________________________________________________________________
conv_dw_7_relu (ReLU)        (None, 12, 12, 512)       0         
_________________________________________________________________
conv_pw_7 (Conv2D)           (None, 12, 12, 512)       262144    
_________________________________________________________________
conv_pw_7_bn (BatchNormaliza (None, 12, 12, 512)       2048      
_________________________________________________________________
conv_pw_7_relu (ReLU)        (None, 12, 12, 512)       0         
_________________________________________________________________
conv_dw_8 (DepthwiseConv2D)  (None, 12, 12, 512)       4608      
_________________________________________________________________
conv_dw_8_bn (BatchNormaliza (None, 12, 12, 512)       2048      
_________________________________________________________________
conv_dw_8_relu (ReLU)        (None, 12, 12, 512)       0         
_________________________________________________________________
conv_pw_8 (Conv2D)           (None, 12, 12, 512)       262144    
_________________________________________________________________
conv_pw_8_bn (BatchNormaliza (None, 12, 12, 512)       2048      
_________________________________________________________________
conv_pw_8_relu (ReLU)        (None, 12, 12, 512)       0         
_________________________________________________________________
conv_dw_9 (DepthwiseConv2D)  (None, 12, 12, 512)       4608      
_________________________________________________________________
conv_dw_9_bn (BatchNormaliza (None, 12, 12, 512)       2048      
_________________________________________________________________
conv_dw_9_relu (ReLU)        (None, 12, 12, 512)       0         
_________________________________________________________________
conv_pw_9 (Conv2D)           (None, 12, 12, 512)       262144    
_________________________________________________________________
conv_pw_9_bn (BatchNormaliza (None, 12, 12, 512)       2048      
_________________________________________________________________
conv_pw_9_relu (ReLU)        (None, 12, 12, 512)       0         
_________________________________________________________________
conv_dw_10 (DepthwiseConv2D) (None, 12, 12, 512)       4608      
_________________________________________________________________
conv_dw_10_bn (BatchNormaliz (None, 12, 12, 512)       2048      
_________________________________________________________________
conv_dw_10_relu (ReLU)       (None, 12, 12, 512)       0         
_________________________________________________________________
conv_pw_10 (Conv2D)          (None, 12, 12, 512)       262144    
_________________________________________________________________
conv_pw_10_bn (BatchNormaliz (None, 12, 12, 512)       2048      
_________________________________________________________________
conv_pw_10_relu (ReLU)       (None, 12, 12, 512)       0         
_________________________________________________________________
conv_dw_11 (DepthwiseConv2D) (None, 12, 12, 512)       4608      
_________________________________________________________________
conv_dw_11_bn (BatchNormaliz (None, 12, 12, 512)       2048      
_________________________________________________________________
conv_dw_11_relu (ReLU)       (None, 12, 12, 512)       0         
_________________________________________________________________
conv_pw_11 (Conv2D)          (None, 12, 12, 512)       262144    
_________________________________________________________________
conv_pw_11_bn (BatchNormaliz (None, 12, 12, 512)       2048      
_________________________________________________________________
conv_pw_11_relu (ReLU)       (None, 12, 12, 512)       0         
_________________________________________________________________
conv_pad_12 (ZeroPadding2D)  (None, 13, 13, 512)       0         
_________________________________________________________________
conv_dw_12 (DepthwiseConv2D) (None, 6, 6, 512)         4608      
_________________________________________________________________
conv_dw_12_bn (BatchNormaliz (None, 6, 6, 512)         2048      
_________________________________________________________________
conv_dw_12_relu (ReLU)       (None, 6, 6, 512)         0         
_________________________________________________________________
conv_pw_12 (Conv2D)          (None, 6, 6, 1024)        524288    
_________________________________________________________________
conv_pw_12_bn (BatchNormaliz (None, 6, 6, 1024)        4096      
_________________________________________________________________
…
__________________________________________________________________________________________________
conv4_block1_2_conv (Conv2D)    (None, 13, 13, 256)  589824      conv4_block1_2_pad[0][0]         
__________________________________________________________________________________________________
conv4_block1_2_bn (BatchNormali (None, 13, 13, 256)  1024        conv4_block1_2_conv[0][0]        
__________________________________________________________________________________________________
conv4_block1_2_relu (Activation (None, 13, 13, 256)  0           conv4_block1_2_bn[0][0]          
__________________________________________________________________________________________________
conv4_block1_0_conv (Conv2D)    (None, 13, 13, 1024) 525312      conv4_block1_preact_relu[0][0]   
__________________________________________________________________________________________________
conv4_block1_3_conv (Conv2D)    (None, 13, 13, 1024) 263168      conv4_block1_2_relu[0][0]        
__________________________________________________________________________________________________
conv4_block1_out (Add)          (None, 13, 13, 1024) 0           conv4_block1_0_conv[0][0]        
                                                                 conv4_block1_3_conv[0][0]        
__________________________________________________________________________________________________
conv4_block2_preact_bn (BatchNo (None, 13, 13, 1024) 4096        conv4_block1_out[0][0]           
__________________________________________________________________________________________________
conv4_block2_preact_relu (Activ (None, 13, 13, 1024) 0           conv4_block2_preact_bn[0][0]     
__________________________________________________________________________________________________
conv4_block2_1_conv (Conv2D)    (None, 13, 13, 256)  262144      conv4_block2_preact_relu[0][0]   
__________________________________________________________________________________________________
conv4_block2_1_bn (BatchNormali (None, 13, 13, 256)  1024        conv4_block2_1_conv[0][0]        
__________________________________________________________________________________________________
conv4_block2_1_relu (Activation (None, 13, 13, 256)  0           conv4_block2_1_bn[0][0]          
__________________________________________________________________________________________________
conv4_block2_2_pad (ZeroPadding (None, 15, 15, 256)  0           conv4_block2_1_relu[0][0]        
__________________________________________________________________________________________________
conv4_block2_2_conv (Conv2D)    (None, 13, 13, 256)  589824      conv4_block2_2_pad[0][0]         
__________________________________________________________________________________________________
conv4_block2_2_bn (BatchNormali (None, 13, 13, 256)  1024        conv4_block2_2_conv[0][0]        
__________________________________________________________________________________________________
conv4_block2_2_relu (Activation (None, 13, 13, 256)  0           conv4_block2_2_bn[0][0]          
__________________________________________________________________________________________________
conv4_block2_3_conv (Conv2D)    (None, 13, 13, 1024) 263168      conv4_block2_2_relu[0][0]        
__________________________________________________________________________________________________
conv4_block2_out (Add)          (None, 13, 13, 1024) 0           conv4_block1_out[0][0]           
                                                                 conv4_block2_3_conv[0][0]        
__________________________________________________________________________________________________
conv4_block3_preact_bn (BatchNo (None, 13, 13, 1024) 4096        conv4_block2_out[0][0]           
__________________________________________________________________________________________________
conv4_block3_preact_relu (Activ (None, 13, 13, 1024) 0           conv4_block3_preact_bn[0][0]     
__________________________________________________________________________________________________
conv4_block3_1_conv (Conv2D)    (None, 13, 13, 256)  262144      conv4_block3_preact_relu[0][0]   
__________________________________________________________________________________________________
conv4_block3_1_bn (BatchNormali (None, 13, 13, 256)  1024        conv4_block3_1_conv[0][0]        
__________________________________________________________________________________________________
conv4_block3_1_relu (Activation (None, 13, 13, 256)  0           conv4_block3_1_bn[0][0]          
__________________________________________________________________________________________________
conv4_block3_2_pad (ZeroPadding (None, 15, 15, 256)  0           conv4_block3_1_relu[0][0]        
__________________________________________________________________________________________________
conv4_block3_2_conv (Conv2D)    (None, 13, 13, 256)  589824      conv4_block3_2_pad[0][0]         
__________________________________________________________________________________________________
conv4_block3_2_bn (BatchNormali (None, 13, 13, 256)  1024        conv4_block3_2_conv[0][0]        
__________________________________________________________________________________________________
conv4_block3_2_relu (Activation (None, 13, 13, 256)  0           conv4_block3_2_bn[0][0]          
__________________________________________________________________________________________________
conv4_block3_3_conv (Conv2D)    (None, 13, 13, 1024) 263168      conv4_block3_2_relu[0][0]        
__________________________________________________________________________________________________
conv4_block3_out (Add)          (None, 13, 13, 1024) 0           conv4_block2_out[0][0]           
                                                                 conv4_block3_3_conv[0][0]        
__________________________________________________________________________________________________
conv4_block4_preact_bn (BatchNo (None, 13, 13, 1024) 4096        conv4_block3_out[0][0]           
__________________________________________________________________________________________________
conv4_block4_preact_relu (Activ (None, 13, 13, 1024) 0           conv4_block4_preact_bn[0][0]     
__________________________________________________________________________________________________
conv4_block4_1_conv (Conv2D)    (None, 13, 13, 256)  262144      conv4_block4_preact_relu[0][0]   
__________________________________________________________________________________________________
conv4_block4_1_bn (BatchNormali (None, 13, 13, 256)  1024        conv4_block4_1_conv[0][0]        
__________________________________________________________________________________________________
conv4_block4_1_relu (Activation (None, 13, 13, 256)  0           conv4_block4_1_bn[0][0]          
__________________________________________________________________________________________________
conv4_block4_2_pad (ZeroPadding (None, 15, 15, 256)  0           conv4_block4_1_relu[0][0]        
__________________________________________________________________________________________________
conv4_block4_2_conv (Conv2D)    (None, 13, 13, 256)  589824      conv4_block4_2_pad[0][0]         
__________________________________________________________________________________________________
conv4_block4_2_bn (BatchNormali (None, 13, 13, 256)  1024        conv4_block4_2_conv[0][0]        
__________________________________________________________________________________________________
conv4_block4_2_relu (Activation (None, 13, 13, 256)  0           conv4_block4_2_bn[0][0]          
__________________________________________________________________________________________________
conv4_block4_3_conv (Conv2D)    (None, 13, 13, 1024) 263168      conv4_block4_2_relu[0][0]        
__________________________________________________________________________________________________
conv4_block4_out (Add)          (None, 13, 13, 1024) 0           conv4_block3_out[0][0]           
                                                                 conv4_block4_3_conv[0][0]        
__________________________________________________________________________________________________
conv4_block5_preact_bn (BatchNo (None, 13, 13, 1024) 4096        conv4_block4_out[0][0]           
__________________________________________________________________________________________________
conv4_block5_preact_relu (Activ (None, 13, 13, 1024) 0           conv4_block5_preact_bn[0][0]     
__________________________________________________________________________________________________
conv4_block5_1_conv (Conv2D)    (None, 13, 13, 256)  262144      conv4_block5_preact_relu[0][0]   
__________________________________________________________________________________________________
conv4_block5_1_bn (BatchNormali (None, 13, 13, 256)  1024        conv4_block5_1_conv[0][0]        
__________________________________________________________________________________________________
conv4_block5_1_relu (Activation (None, 13, 13, 256)  0           conv4_block5_1_bn[0][0]          
__________________________________________________________________________________________________
conv4_block5_2_pad (ZeroPadding (None, 15, 15, 256)  0           conv4_block5_1_relu[0][0]        
__________________________________________________________________________________________________
conv4_block5_2_conv (Conv2D)    (None, 13, 13, 256)  589824      conv4_block5_2_pad[0][0]         
__________________________________________________________________________________________________
conv4_block5_2_bn (BatchNormali (None, 13, 13, 256)  1024        conv4_block5_2_conv[0][0]        
__________________________________________________________________________________________________
conv4_block5_2_relu (Activation (None, 13, 13, 256)  0           conv4_block5_2_bn[0][0]          
__________________________________________________________________________________________________
conv4_block5_3_conv (Conv2D)    (None, 13, 13, 1024) 263168      conv4_block5_2_relu[0][0]        
__________________________________________________________________________________________________
conv4_block5_out (Add)          (None, 13, 13, 1024) 0           conv4_block4_out[0][0]           
                                                                 conv4_block5_3_conv[0][0]        
__________________________________________________________________________________________________
conv4_block6_preact_bn (BatchNo (None, 13, 13, 1024) 4096        conv4_block5_out[0][0]           
__________________________________________________________________________________________________
conv4_block6_preact_relu (Activ (None, 13, 13, 1024) 0           conv4_block6_preact_bn[0][0]     
__________________________________________________________________________________________________
conv4_block6_1_conv (Conv2D)    (None, 13, 13, 256)  262144      conv4_block6_preact_relu[0][0]   
__________________________________________________________________________________________________
conv4_block6_1_bn (BatchNormali (None, 13, 13, 256)  1024        conv4_block6_1_conv[0][0]        
__________________________________________________________________________________________________
conv4_block6_1_relu (Activation (None, 13, 13, 256)  0           conv4_block6_1_bn[0][0]          
__________________________________________________________________________________________________
conv4_block6_2_pad (ZeroPadding (None, 15, 15, 256)  0           conv4_block6_1_relu[0][0]        
__________________________________________________________________________________________________
conv4_block6_2_conv (Conv2D)    (None, 7, 7, 256)    589824      conv4_block6_2_pad[0][0]         
__________________________________________________________________________________________________
conv4_block6_2_bn (BatchNormali (None, 7, 7, 256)    1024        conv4_block6_2_conv[0][0]        
__________________________________________________________________________________________________
conv4_block6_2_relu (Activation (None, 7, 7, 256)    0           conv4_block6_2_bn[0][0]          
__________________________________________________________________________________________________
max_pooling2d_9 (MaxPooling2D)  (None, 7, 7, 1024)   0           conv4_block5_out[0][0]           
__________________________________________________________________________________________________
conv4_block6_3_conv (Conv2D)    (None, 7, 7, 1024)   263168      conv4_block6_2_relu[0][0]        
__________________________________________________________________________________________________
conv4_block6_out (Add)          (None, 7, 7, 1024)   0           max_pooling2d_9[0][0]            
                                                                 conv4_block6_3_conv[0][0]        
__________________________________________________________________________________________________
conv5_block1_preact_bn (BatchNo (None, 7, 7, 1024)   4096        conv4_block6_out[0][0]           
__________________________________________________________________________________________________
conv5_block1_preact_relu (Activ (None, 7, 7, 1024)   0           conv5_block1_preact_bn[0][0]     
__________________________________________________________________________________________________
conv5_block1_1_conv (Conv2D)    (None, 7, 7, 512)    524288      conv5_block1_preact_relu[0][0]   
__________________________________________________________________________________________________
conv5_block1_1_bn (BatchNormali (None, 7, 7, 512)    2048        conv5_block1_1_conv[0][0]        
__________________________________________________________________________________________________
conv5_block1_1_relu (Activation (None, 7, 7, 512)    0           conv5_block1_1_bn[0][0]          
__________________________________________________________________________________________________
conv5_block1_2_pad (ZeroPadding (None, 9, 9, 512)    0           conv5_block1_1_relu[0][0]        
__________________________________________________________________________________________________
conv5_block1_2_conv (Conv2D)    (None, 7, 7, 512)    2359296     conv5_block1_2_pad[0][0]         
__________________________________________________________________________________________________
conv5_block1_2_bn (BatchNormali (None, 7, 7, 512)    2048        conv5_block1_2_conv[0][0]        
__________________________________________________________________________________________________
conv5_block1_2_relu (Activation (None, 7, 7, 512)    0           conv5_block1_2_bn[0][0]          
__________________________________________________________________________________________________
conv5_block1_0_conv (Conv2D)    (None, 7, 7, 2048)   2099200     conv5_block1_preact_relu[0][0]   
__________________________________________________________________________________________________
conv5_block1_3_conv (Conv2D)    (None, 7, 7, 2048)   1050624     conv5_block1_2_relu[0][0]        
__________________________________________________________________________________________________
conv5_block1_out (Add)          (None, 7, 7, 2048)   0           conv5_block1_0_conv[0][0]        
                                                                 conv5_block1_3_conv[0][0]        
__________________________________________________________________________________________________
conv5_block2_preact_bn (BatchNo (None, 7, 7, 2048)   8192        conv5_block1_out[0][0]           
__________________________________________________________________________________________________
conv5_block2_preact_relu (Activ (None, 7, 7, 2048)   0           conv5_block2_preact_bn[0][0]     
__________________________________________________________________________________________________
conv5_block2_1_conv (Conv2D)    (None, 7, 7, 512)    1048576     conv5_block2_preact_relu[0][0]   
__________________________________________________________________________________________________
conv5_block2_1_bn (BatchNormali (None, 7, 7, 512)    2048        conv5_block2_1_conv[0][0]        
__________________________________________________________________________________________________
conv5_block2_1_relu (Activation (None, 7, 7, 512)    0           conv5_block2_1_bn[0][0]          
__________________________________________________________________________________________________
conv5_block2_2_pad (ZeroPadding (None, 9, 9, 512)    0           conv5_block2_1_relu[0][0]        
__________________________________________________________________________________________________
conv5_block2_2_conv (Conv2D)    (None, 7, 7, 512)    2359296     conv5_block2_2_pad[0][0]         
__________________________________________________________________________________________________
conv5_block2_2_bn (BatchNormali (None, 7, 7, 512)    2048        conv5_block2_2_conv[0][0]        
__________________________________________________________________________________________________
conv5_block2_2_relu (Activation (None, 7, 7, 512)    0           conv5_block2_2_bn[0][0]          
__________________________________________________________________________________________________
conv5_block2_3_conv (Conv2D)    (None, 7, 7, 2048)   1050624     conv5_block2_2_relu[0][0]        
__________________________________________________________________________________________________
conv5_block2_out (Add)          (None, 7, 7, 2048)   0           conv5_block1_out[0][0]           
                                                                 conv5_block2_3_conv[0][0]        
__________________________________________________________________________________________________
conv5_block3_preact_bn (BatchNo (None, 7, 7, 2048)   8192        conv5_block2_out[0][0]           
__________________________________________________________________________________________________
conv5_block3_preact_relu (Activ (None, 7, 7, 2048)   0           conv5_block3_preact_bn[0][0]     
__________________________________________________________________________________________________
conv5_block3_1_conv (Conv2D)    (None, 7, 7, 512)    1048576     conv5_block3_preact_relu[0][0]   
__________________________________________________________________________________________________
conv5_block3_1_bn (BatchNormali (None, 7, 7, 512)    2048        conv5_block3_1_conv[0][0]        
__________________________________________________________________________________________________
conv5_block3_1_relu (Activation (None, 7, 7, 512)    0           conv5_block3_1_bn[0][0]          
__________________________________________________________________________________________________
conv5_block3_2_pad (ZeroPadding (None, 9, 9, 512)    0           conv5_block3_1_relu[0][0]        
__________________________________________________________________________________________________
conv5_block3_2_conv (Conv2D)    (None, 7, 7, 512)    2359296     conv5_block3_2_pad[0][0]         
__________________________________________________________________________________________________
conv5_block3_2_bn (BatchNormali (None, 7, 7, 512)    2048        conv5_block3_2_conv[0][0]        
__________________________________________________________________________________________________
conv5_block3_2_relu (Activation (None, 7, 7, 512)    0           conv5_block3_2_bn[0][0]          
__________________________________________________________________________________________________
conv5_block3_3_conv (Conv2D)    (None, 7, 7, 2048)   1050624     conv5_block3_2_relu[0][0]        
__________________________________________________________________________________________________
conv5_block3_out (Add)          (None, 7, 7, 2048)   0           conv5_block2_out[0][0]           
                                                                 conv5_block3_3_conv[0][0]        
__________________________________________________________________________________________________
post_bn (BatchNormalization)    (None, 7, 7, 2048)   8192        conv5_block3_out[0][0]           
__________________________________________________________________________________________________
post_relu (Activation)          (None, 7, 7, 2048)   0           post_bn[0][0]                    
__________________________________________________________________________________________________
flatten_7 (Flatten)             (None, 100352)       0           post_relu[0][0]                  
__________________________________________________________________________________________________
dense_14 (Dense)                (None, 128)          12845184    flatten_7[0][0]                  
__________________________________________________________________________________________________
dense_15 (Dense)                (None, 1)            129         dense_14[0][0]                   
==================================================================================================
Total params: 36,410,113
Trainable params: 12,845,313
Non-trainable params: 23,564,800
__________________________________________________________________________________________________
None
Found 145 images belonging to 2 classes.
Found 36 images belonging to 2 classes.
…
- accuracy: 1.000010/10 [==============================] - 17s 2s/step - loss: 2.1385e-04 - accuracy: 1.0000 - val_loss: 0.2546 - val_accuracy: 0.9444
> 97.826
Model: "functional_17"
__________________________________________________________________________________________________
Layer (type)                    Output Shape         Param #     Connected to                     
==================================================================================================
input_8 (InputLayer)            [(None, 200, 200, 3) 0                                            
__________________________________________________________________________________________________
block1_conv1 (Conv2D)           (None, 99, 99, 32)   864         input_8[0][0]                    
__________________________________________________________________________________________________
block1_conv1_bn (BatchNormaliza (None, 99, 99, 32)   128         block1_conv1[0][0]               
__________________________________________________________________________________________________
block1_conv1_act (Activation)   (None, 99, 99, 32)   0           block1_conv1_bn[0][0]            
__________________________________________________________________________________________________
block1_conv2 (Conv2D)           (None, 97, 97, 64)   18432       block1_conv1_act[0][0]           
__________________________________________________________________________________________________
block1_conv2_bn (BatchNormaliza (None, 97, 97, 64)   256         block1_conv2[0][0]               
__________________________________________________________________________________________________
block1_conv2_act (Activation)   (None, 97, 97, 64)   0           block1_conv2_bn[0][0]            
__________________________________________________________________________________________________
block2_sepconv1 (SeparableConv2 (None, 97, 97, 128)  8768        block1_conv2_act[0][0]           
__________________________________________________________________________________________________
block2_sepconv1_bn (BatchNormal (None, 97, 97, 128)  512         block2_sepconv1[0][0]            
__________________________________________________________________________________________________
block2_sepconv2_act (Activation (None, 97, 97, 128)  0           block2_sepconv1_bn[0][0]         
__________________________________________________________________________________________________
block2_sepconv2 (SeparableConv2 (None, 97, 97, 128)  17536       block2_sepconv2_act[0][0]        
__________________________________________________________________________________________________
block2_sepconv2_bn (BatchNormal (None, 97, 97, 128)  512         block2_sepconv2[0][0]            
__________________________________________________________________________________________________
conv2d_97 (Conv2D)              (None, 49, 49, 128)  8192        block1_conv2_act[0][0]           
__________________________________________________________________________________________________
block2_pool (MaxPooling2D)      (None, 49, 49, 128)  0           block2_sepconv2_bn[0][0]         
__________________________________________________________________________________________________
batch_normalization_94 (BatchNo (None, 49, 49, 128)  512         conv2d_97[0][0]                  
__________________________________________________________________________________________________
add (Add)                       (None, 49, 49, 128)  0           block2_pool[0][0]                
                                                                 batch_normalization_94[0][0]     
__________________________________________________________________________________________________
block3_sepconv1_act (Activation (None, 49, 49, 128)  0           add[0][0]                        
__________________________________________________________________________________________________
block3_sepconv1 (SeparableConv2 (None, 49, 49, 256)  33920       block3_sepconv1_act[0][0]        
__________________________________________________________________________________________________
block3_sepconv1_bn (BatchNormal (None, 49, 49, 256)  1024        block3_sepconv1[0][0]            
__________________________________________________________________________________________________
block3_sepconv2_act (Activation (None, 49, 49, 256)  0           block3_sepconv1_bn[0][0]         
__________________________________________________________________________________________________
block3_sepconv2 (SeparableConv2 (None, 49, 49, 256)  67840       block3_sepconv2_act[0][0]        
__________________________________________________________________________________________________
block3_sepconv2_bn (BatchNormal (None, 49, 49, 256)  1024        block3_sepconv2[0][0]            
__________________________________________________________________________________________________
conv2d_98 (Conv2D)              (None, 25, 25, 256)  32768       add[0][0]                        
__________________________________________________________________________________________________
block3_pool (MaxPooling2D)      (None, 25, 25, 256)  0           block3_sepconv2_bn[0][0]         
__________________________________________________________________________________________________
batch_normalization_95 (BatchNo (None, 25, 25, 256)  1024        conv2d_98[0][0]                  
__________________________________________________________________________________________________
add_1 (Add)                     (None, 25, 25, 256)  0           block3_pool[0][0]                
                                                                 batch_normalization_95[0][0]     
__________________________________________________________________________________________________
block4_sepconv1_act (Activation (None, 25, 25, 256)  0           add_1[0][0]                      
__________________________________________________________________________________________________
block4_sepconv1 (SeparableConv2 (None, 25, 25, 728)  188672      block4_sepconv1_act[0][0]        
__________________________________________________________________________________________________
block4_sepconv1_bn (BatchNormal (None, 25, 25, 728)  2912        block4_sepconv1[0][0]            
__________________________________________________________________________________________________
block4_sepconv2_act (Activation (None, 25, 25, 728)  0           block4_sepconv1_bn[0][0]         
__________________________________________________________________________________________________
block4_sepconv2 (SeparableConv2 (None, 25, 25, 728)  536536      block4_sepconv2_act[0][0]        
__________________________________________________________________________________________________
block4_sepconv2_bn (BatchNormal (None, 25, 25, 728)  2912        block4_sepconv2[0][0]            
__________________________________________________________________________________________________
conv2d_99 (Conv2D)              (None, 13, 13, 728)  186368      add_1[0][0]                      
__________________________________________________________________________________________________
block4_pool (MaxPooling2D)      (None, 13, 13, 728)  0           block4_sepconv2_bn[0][0]         
__________________________________________________________________________________________________
batch_normalization_96 (BatchNo (None, 13, 13, 728)  2912        conv2d_99[0][0]                  
__________________________________________________________________________________________________
add_2 (Add)                     (None, 13, 13, 728)  0           block4_pool[0][0]                
                                                                 batch_normalization_96[0][0]     
__________________________________________________________________________________________________
block5_sepconv1_act (Activation (None, 13, 13, 728)  0           add_2[0][0]                      
__________________________________________________________________________________________________
block5_sepconv1 (SeparableConv2 (None, 13, 13, 728)  536536      block5_sepconv1_act[0][0]        
__________________________________________________________________________________________________
block5_sepconv1_bn (BatchNormal (None, 13, 13, 728)  2912        block5_sepconv1[0][0]            
__________________________________________________________________________________________________
block5_sepconv2_act (Activation (None, 13, 13, 728)  0           block5_sepconv1_bn[0][0]         
__________________________________________________________________________________________________
block5_sepconv2 (SeparableConv2 (None, 13, 13, 728)  536536      block5_sepconv2_act[0][0]        
__________________________________________________________________________________________________
block5_sepconv2_bn (BatchNormal (None, 13, 13, 728)  2912        block5_sepconv2[0][0]            
__________________________________________________________________________________________________
block5_sepconv3_act (Activation (None, 13, 13, 728)  0           block5_sepconv2_bn[0][0]         
__________________________________________________________________________________________________
block5_sepconv3 (SeparableConv2 (None, 13, 13, 728)  536536      block5_sepconv3_act[0][0]        
__________________________________________________________________________________________________
block5_sepconv3_bn (BatchNormal (None, 13, 13, 728)  2912        block5_sepconv3[0][0]            
__________________________________________________________________________________________________
add_3 (Add)                     (None, 13, 13, 728)  0           block5_sepconv3_bn[0][0]         
                                                                 add_2[0][0]                      
__________________________________________________________________________________________________
block6_sepconv1_act (Activation (None, 13, 13, 728)  0           add_3[0][0]                      
__________________________________________________________________________________________________
block6_sepconv1 (SeparableConv2 (None, 13, 13, 728)  536536      block6_sepconv1_act[0][0]        
__________________________________________________________________________________________________
block6_sepconv1_bn (BatchNormal (None, 13, 13, 728)  2912        block6_sepconv1[0][0]            
__________________________________________________________________________________________________
block6_sepconv2_act (Activation (None, 13, 13, 728)  0           block6_sepconv1_bn[0][0]         
__________________________________________________________________________________________________
block6_sepconv2 (SeparableConv2 (None, 13, 13, 728)  536536      block6_sepconv2_act[0][0]        
__________________________________________________________________________________________________
block6_sepconv2_bn (BatchNormal (None, 13, 13, 728)  2912        block6_sepconv2[0][0]            
__________________________________________________________________________________________________
block6_sepconv3_act (Activation (None, 13, 13, 728)  0           block6_sepconv2_bn[0][0]         
__________________________________________________________________________________________________
block6_sepconv3 (SeparableConv2 (None, 13, 13, 728)  536536      block6_sepconv3_act[0][0]        
__________________________________________________________________________________________________
block6_sepconv3_bn (BatchNormal (None, 13, 13, 728)  2912        block6_sepconv3[0][0]            
__________________________________________________________________________________________________
add_4 (Add)                     (None, 13, 13, 728)  0           block6_sepconv3_bn[0][0]         
                                                                 add_3[0][0]                      
__________________________________________________________________________________________________
block7_sepconv1_act (Activation (None, 13, 13, 728)  0           add_4[0][0]                      
__________________________________________________________________________________________________
block7_sepconv1 (SeparableConv2 (None, 13, 13, 728)  536536      block7_sepconv1_act[0][0]        
__________________________________________________________________________________________________
block7_sepconv1_bn (BatchNormal (None, 13, 13, 728)  2912        block7_sepconv1[0][0]            
__________________________________________________________________________________________________
block7_sepconv2_act (Activation (None, 13, 13, 728)  0           block7_sepconv1_bn[0][0]         
__________________________________________________________________________________________________
block7_sepconv2 (SeparableConv2 (None, 13, 13, 728)  536536      block7_sepconv2_act[0][0]        
__________________________________________________________________________________________________
block7_sepconv2_bn (BatchNormal (None, 13, 13, 728)  2912        block7_sepconv2[0][0]            
__________________________________________________________________________________________________
block7_sepconv3_act (Activation (None, 13, 13, 728)  0           block7_sepconv2_bn[0][0]         
__________________________________________________________________________________________________
block7_sepconv3 (SeparableConv2 (None, 13, 13, 728)  536536      block7_sepconv3_act[0][0]        
__________________________________________________________________________________________________
block7_sepconv3_bn (BatchNormal (None, 13, 13, 728)  2912        block7_sepconv3[0][0]            
__________________________________________________________________________________________________
add_5 (Add)                     (None, 13, 13, 728)  0           block7_sepconv3_bn[0][0]         
                                                                 add_4[0][0]                      
__________________________________________________________________________________________________
block8_sepconv1_act (Activation (None, 13, 13, 728)  0           add_5[0][0]                      
__________________________________________________________________________________________________
block8_sepconv1 (SeparableConv2 (None, 13, 13, 728)  536536      block8_sepconv1_act[0][0]        
__________________________________________________________________________________________________
block8_sepconv1_bn (BatchNormal (None, 13, 13, 728)  2912        block8_sepconv1[0][0]            
__________________________________________________________________________________________________
block8_sepconv2_act (Activation (None, 13, 13, 728)  0           block8_sepconv1_bn[0][0]         
__________________________________________________________________________________________________
block8_sepconv2 (SeparableConv2 (None, 13, 13, 728)  536536      block8_sepconv2_act[0][0]        
__________________________________________________________________________________________________
block8_sepconv2_bn (BatchNormal (None, 13, 13, 728)  2912        block8_sepconv2[0][0]            
__________________________________________________________________________________________________
block8_sepconv3_act (Activation (None, 13, 13, 728)  0           block8_sepconv2_bn[0][0]         
__________________________________________________________________________________________________
block8_sepconv3 (SeparableConv2 (None, 13, 13, 728)  536536      block8_sepconv3_act[0][0]        
__________________________________________________________________________________________________
block8_sepconv3_bn (BatchNormal (None, 13, 13, 728)  2912        block8_sepconv3[0][0]            
__________________________________________________________________________________________________
add_6 (Add)                     (None, 13, 13, 728)  0           block8_sepconv3_bn[0][0]         
                                                                 add_5[0][0]                      
__________________________________________________________________________________________________
block9_sepconv1_act (Activation (None, 13, 13, 728)  0           add_6[0][0]                      
__________________________________________________________________________________________________
block9_sepconv1 (SeparableConv2 (None, 13, 13, 728)  536536      block9_sepconv1_act[0][0]        
__________________________________________________________________________________________________
block9_sepconv1_bn (BatchNormal (None, 13, 13, 728)  2912        block9_sepconv1[0][0]            
__________________________________________________________________________________________________
block9_sepconv2_act (Activation (None, 13, 13, 728)  0           block9_sepconv1_bn[0][0]         
__________________________________________________________________________________________________
block9_sepconv2 (SeparableConv2 (None, 13, 13, 728)  536536      block9_sepconv2_act[0][0]        
__________________________________________________________________________________________________
block9_sepconv2_bn (BatchNormal (None, 13, 13, 728)  2912        block9_sepconv2[0][0]            
__________________________________________________________________________________________________
block9_sepconv3_act (Activation (None, 13, 13, 728)  0           block9_sepconv2_bn[0][0]         
__________________________________________________________________________________________________
block9_sepconv3 (SeparableConv2 (None, 13, 13, 728)  536536      block9_sepconv3_act[0][0]        
__________________________________________________________________________________________________
block9_sepconv3_bn (BatchNormal (None, 13, 13, 728)  2912        block9_sepconv3[0][0]            
__________________________________________________________________________________________________
add_7 (Add)                     (None, 13, 13, 728)  0           block9_sepconv3_bn[0][0]         
                                                                 add_6[0][0]                      
__________________________________________________________________________________________________
block10_sepconv1_act (Activatio (None, 13, 13, 728)  0           add_7[0][0]                      
__________________________________________________________________________________________________
block10_sepconv1 (SeparableConv (None, 13, 13, 728)  536536      block10_sepconv1_act[0][0]       
__________________________________________________________________________________________________
block10_sepconv1_bn (BatchNorma (None, 13, 13, 728)  2912        block10_sepconv1[0][0]           
__________________________________________________________________________________________________
block10_sepconv2_act (Activatio (None, 13, 13, 728)  0           block10_sepconv1_bn[0][0]        
__________________________________________________________________________________________________
block10_sepconv2 (SeparableConv (None, 13, 13, 728)  536536      block10_sepconv2_act[0][0]       
__________________________________________________________________________________________________
block10_sepconv2_bn (BatchNorma (None, 13, 13, 728)  2912        block10_sepconv2[0][0]           
__________________________________________________________________________________________________
block10_sepconv3_act (Activatio (None, 13, 13, 728)  0           block10_sepconv2_bn[0][0]        
__________________________________________________________________________________________________
block10_sepconv3 (SeparableConv (None, 13, 13, 728)  536536      block10_sepconv3_act[0][0]       
__________________________________________________________________________________________________
block10_sepconv3_bn (BatchNorma (None, 13, 13, 728)  2912        block10_sepconv3[0][0]           
__________________________________________________________________________________________________
add_8 (Add)                     (None, 13, 13, 728)  0           block10_sepconv3_bn[0][0]        
                                                                 add_7[0][0]                      
__________________________________________________________________________________________________
block11_sepconv1_act (Activatio (None, 13, 13, 728)  0           add_8[0][0]                      
__________________________________________________________________________________________________
block11_sepconv1 (SeparableConv (None, 13, 13, 728)  536536      block11_sepconv1_act[0][0]       
__________________________________________________________________________________________________
block11_sepconv1_bn (BatchNorma (None, 13, 13, 728)  2912        block11_sepconv1[0][0]           
__________________________________________________________________________________________________
block11_sepconv2_act (Activatio (None, 13, 13, 728)  0           block11_sepconv1_bn[0][0]        
__________________________________________________________________________________________________
block11_sepconv2 (SeparableConv (None, 13, 13, 728)  536536      block11_sepconv2_act[0][0]       
__________________________________________________________________________________________________
block11_sepconv2_bn (BatchNorma (None, 13, 13, 728)  2912        block11_sepconv2[0][0]           
__________________________________________________________________________________________________
block11_sepconv3_act (Activatio (None, 13, 13, 728)  0           block11_sepconv2_bn[0][0]        
__________________________________________________________________________________________________
block11_sepconv3 (SeparableConv (None, 13, 13, 728)  536536      block11_sepconv3_act[0][0]       
__________________________________________________________________________________________________
block11_sepconv3_bn (BatchNorma (None, 13, 13, 728)  2912        block11_sepconv3[0][0]           
__________________________________________________________________________________________________
add_9 (Add)                     (None, 13, 13, 728)  0           block11_sepconv3_bn[0][0]        
                                                                 add_8[0][0]                      
__________________________________________________________________________________________________
block12_sepconv1_act (Activatio (None, 13, 13, 728)  0           add_9[0][0]                      
__________________________________________________________________________________________________
block12_sepconv1 (SeparableConv (None, 13, 13, 728)  536536      block12_sepconv1_act[0][0]       
__________________________________________________________________________________________________
block12_sepconv1_bn (BatchNorma (None, 13, 13, 728)  2912        block12_sepconv1[0][0]           
__________________________________________________________________________________________________
block12_sepconv2_act (Activatio (None, 13, 13, 728)  0           block12_sepconv1_bn[0][0]        
__________________________________________________________________________________________________
block12_sepconv2 (SeparableConv (None, 13, 13, 728)  536536      block12_sepconv2_act[0][0]       
__________________________________________________________________________________________________
block12_sepconv2_bn (BatchNorma (None, 13, 13, 728)  2912        block12_sepconv2[0][0]           
__________________________________________________________________________________________________
block12_sepconv3_act (Activatio (None, 13, 13, 728)  0           block12_sepconv2_bn[0][0]        
__________________________________________________________________________________________________
block12_sepconv3 (SeparableConv (None, 13, 13, 728)  536536      block12_sepconv3_act[0][0]       
__________________________________________________________________________________________________
block12_sepconv3_bn (BatchNorma (None, 13, 13, 728)  2912        block12_sepconv3[0][0]           
__________________________________________________________________________________________________
add_10 (Add)                    (None, 13, 13, 728)  0           block12_sepconv3_bn[0][0]        
                                                                 add_9[0][0]                      
__________________________________________________________________________________________________
block13_sepconv1_act (Activatio (None, 13, 13, 728)  0           add_10[0][0]                     
__________________________________________________________________________________________________
block13_sepconv1 (SeparableConv (None, 13, 13, 728)  536536      block13_sepconv1_act[0][0]       
__________________________________________________________________________________________________
block13_sepconv1_bn (BatchNorma (None, 13, 13, 728)  2912        block13_sepconv1[0][0]           
__________________________________________________________________________________________________
block13_sepconv2_act (Activatio (None, 13, 13, 728)  0           block13_sepconv1_bn[0][0]        
__________________________________________________________________________________________________
block13_sepconv2 (SeparableConv (None, 13, 13, 1024) 752024      block13_sepconv2_act[0][0]       
__________________________________________________________________________________________________
block13_sepconv2_bn (BatchNorma (None, 13, 13, 1024) 4096        block13_sepconv2[0][0]           
__________________________________________________________________________________________________
conv2d_100 (Conv2D)             (None, 7, 7, 1024)   745472      add_10[0][0]                     
__________________________________________________________________________________________________
block13_pool (MaxPooling2D)     (None, 7, 7, 1024)   0           block13_sepconv2_bn[0][0]        
__________________________________________________________________________________________________
batch_normalization_97 (BatchNo (None, 7, 7, 1024)   4096        conv2d_100[0][0]                 
__________________________________________________________________________________________________
add_11 (Add)                    (None, 7, 7, 1024)   0           block13_pool[0][0]               
                                                                 batch_normalization_97[0][0]     
__________________________________________________________________________________________________
block14_sepconv1 (SeparableConv (None, 7, 7, 1536)   1582080     add_11[0][0]                     
__________________________________________________________________________________________________
block14_sepconv1_bn (BatchNorma (None, 7, 7, 1536)   6144        block14_sepconv1[0][0]           
__________________________________________________________________________________________________
block14_sepconv1_act (Activatio (None, 7, 7, 1536)   0           block14_sepconv1_bn[0][0]        
__________________________________________________________________________________________________
block14_sepconv2 (SeparableConv (None, 7, 7, 2048)   3159552     block14_sepconv1_act[0][0]       
__________________________________________________________________________________________________
block14_sepconv2_bn (BatchNorma (None, 7, 7, 2048)   8192        block14_sepconv2[0][0]           
__________________________________________________________________________________________________
block14_sepconv2_act (Activatio (None, 7, 7, 2048)   0           block14_sepconv2_bn[0][0]        
__________________________________________________________________________________________________
flatten_8 (Flatten)             (None, 100352)       0           block14_sepconv2_act[0][0]       
__________________________________________________________________________________________________
dense_16 (Dense)                (None, 128)          12845184    flatten_8[0][0]                  
__________________________________________________________________________________________________
dense_17 (Dense)                (None, 1)            129         dense_16[0][0]                   
==================================================================================================
Total params: 33,706,793
Trainable params: 12,845,313
Non-trainable params: 20,861,480
__________________________________________________________________________________________________
None
Found 145 images belonging to 2 classes.
Found 36 images belonging to 2 classes.
…
